Game/models/Classic_DQN_Model.pt (torch, 23181 bytes, 6 tensors)

model.0.weight f4 [64, 8]
-0.16282533 -0.29044157 -0.64190096 -1.1531957 0.4988768 1.6445533 0.37560856 -0.08795004
0.115395345 0.5671707 -0.19253547 -1.5513544 -0.89694977 -0.16996723 0.5689303 -1.6288658
0.5178794 0.80426526 0.7567119 0.36961356 0.33586723 1.1023221 -1.6912341 0.6169938
-2.2410624 0.3849065 -1.7449011 -0.075833835 -0.1905138 -0.13888033 0.17723805 0.008637438
0.32545877 -4.669027 0.043160208 -0.6274274 -1.1183735 0.8432296 0.5289563 0.13322452
-0.04681422 -1.0420741 0.31686327 -0.8851051 -0.8580284 -0.7448534 -0.099746555 0.24214199
1.1585283 -1.0403255 0.77613205 -0.60026306 -0.50008875 0.30533916 0.089717135 0.93008345
1.1253921 0.106058076 1.3864119 -0.7957694 -0.3440266 0.097489744 0.62657124 0.5752005
0.6508412 -1.6256222 -0.27583522 -1.2165034 -1.2976371 -0.8982873 -0.13810176 0.019395482
0.32734764 0.63668483 0.29242754 -1.784469 -0.2423153 0.13365039 0.5828983 -1.5127562
-0.12791492 2.317242 -0.10651606 0.59842724 0.38901332 -1.2014567 -0.17540589 -0.15036987
1.0816268 -0.07149488 0.8621969 -1.6812618 0.90953493 -0.3497599 0.08415505 -0.0720659
0.4087849 0.32551435 0.03300055 -0.068795495 -0.27304825 -0.9242175 -1.1583117 0.06737025
-0.8210247 -0.7761347 -0.9058267 -0.7831929 0.9544719 0.7687467 0.5760839 0.33194354
-0.36586395 0.5158892 -0.07789968 -0.7100034 -0.06293936 0.20300767 0.64226764 -0.9461776
-1.1203074 -4.23466 0.047993172 -0.68551475 1.4236819 -0.34496582 0.7740128 0.20885985
-0.18932699 0.7996066 -0.069724515 0.5708696 0.07254848 -1.1124575 -1.0021675 -0.70712686
-0.118382886 0.4696235 -0.60998255 0.6040469 0.30974755 1.228737 1.9159218 -0.20819989
0.12583987 -0.15819854 -0.49450815 -2.4154124 -2.125054 -0.7314199 0.029716639 0.017354323
0.9669843 -0.10088949 1.4270275 -0.34884572 -1.1019304 0.4508763 -0.16692804 0.22480002
1.2344257 0.25125465 0.58960295 -0.40108 -1.1449943 0.0456664 0.7231287 0.346486
-0.85571456 -5.6259155 0.20912495 0.31587678 0.1281246 1.0383607 0.5424118 -0.13692416
-0.2549299 2.0331998 -0.5893638 0.54268074 -0.028122451 1.3511233 0.2712267 0.086487606
0.6455889 -0.07219585 1.3022988 0.56064606 -1.2338179 0.09847172 0.6814365 0.68789136
0.65161043 1.4759656 0.38441676 0.8008974 0.439399 0.46209916 0.58196175 -0.49367067
-0.8406667 0.94908506 -0.16110748 0.5168923 0.5251513 1.3388124 -0.06123806 -0.6006386
-0.6903407 -0.65479946 -0.83991826 -0.97985834 1.0510786 0.3736254 0.3958526 0.357001
1.2973082 -0.44220564 0.32455269 -0.50127614 -1.5374441 -0.14738621 0.02138739 0.8862954
0.35081756 -0.18655267 -0.17468959 -0.28629223 -0.3328827 -0.6166365 -0.13008669 1.110325
-0.78414476 1.7841964 1.0179044 0.1757442 -0.604683 -0.84355426 -0.4891752 -0.9457367
-0.4932303 -0.386688 1.327491 -1.399841 -1.6634324 -0.39813653 -0.39161465 0.16570705
1.0047883 -0.01728807 1.6709418 -0.7667589 -0.5187965 0.49607292 0.27829716 -0.08352187
00000000: afbb 26be c2b4 94be 9f53 24bf eb9b 93bf
00000010: c86c ff3e b980 d23f c44f c03e 271f b4bd
00000020: 6554 ec3d 1932 113f 0528 45be c892 c6bf
00000030: 809e 65bf e40b 2ebe 6ba5 113f ad7e d0bf
00000040: bf93 043f 54e4 4d3f dfb7 413f fd3d bd3e
00000050: caf6 ab3e e418 8d3f 5c7a d8bf 4ef3 1d3f
00000060: 916d 0fc0 7712 c53e eb58 dfbf c54e 9bbd
00000070: 0d16 43be a536 0ebe e47d 353e 0a84 0d3c
00000080: 88a2 a63e ab68 95c0 c2c8 303d 159f 20bf
00000090: dd26 8fbf e5dd 573f ae69 073f 026c 083e
000000a0: 44c0 3fbd af62 85bf e73b a23e 3f96 62bf
000000b0: c0a7 5bbf b6ae 3ebf ec47 ccbd 12f4 773e
000000c0: a84a 943f 6329 85bf 97b0 463f d7aa 19bf
000000d0: d105 00bf 6a55 9c3e 9ebd b73d f319 6e3f
000000e0: d90c 903f fa34 d93d f275 b13f 8bb7 4bbf
000000f0: 4124 b0be b4a8 c73d f966 203f 5740 133f
00000100: 879d 263f 6314 d0bf 463a 8dbe 62b6 9bbf
00000110: f918 a6bf 28f6 65bf 8c6a 0dbe 46e3 9e3c
00000120: 1c9a a73e c7fd 223f 10b9 953e 7b69 e4bf
00000130: 8121 78be a6db 083e d338 153f ffa1 c1bf
00000140: 21fc 02be b14d 1440 1825 dabd 8732 193f
00000150: c12c c73e 55c9 99bf 9a9d 33be 8ffa 19be
00000160: bf72 8a3f e86b 92bd f0b8 5c3f 9633 d7bf
00000170: 48d7 683f bb13 b3be 7c59 ac3d 4997 93bd
00000180: 414c d13e d1a9 a63e 962b 073d a7e4 8cbd
00000190: fbcc 8bbe 8599 6cbf 8f43 94bf 6af9 893d
000001a0: ad2e 52bf c4b0 46bf 42e4 67bf 547f 48bf
000001b0: 4558 743f 95cc 443f 3c7a 133f 81f4 a93e
000001c0: 8552 bbbe 5111 043f de89 9fbd c8c2 35bf
000001d0: 5ae6 80bd 3ee1 4f3e a76b 243f b238 72bf
000001e0: 3c66 8fbf 5682 87c0 7d94 443d e57d 2fbf
000001f0: 353b b63f 5c9f b0be b425 463f 5bdf 553e
00000200: efde 41be 05b3 4c3f bacb 8ebd 8324 123f
00000210: 4c94 943d 0265 8ebf 0647 80bf 4406 35bf
00000220: ba72 f2bd 7e72 f03e d127 1cbf d1a2 1a3f
00000230: 3b97 9e3e 4147 9d3f ed3c f53f 5a32 55be
00000240: 2bdc 003e ccfe 21be 2c30 fdbe 1e96 1ac0
00000250: e200 08c0 563e 3bbf 4f70 f33c a72a 8e3c
00000260: 488c 773f 269f cebd d6a8 b63f e89b b2be
00000270: 0e0c 8dbf 42d9 e63e 2fef 2abe fa31 663e
00000280: a901 9e3f 73a4 803e 38f0 163f 5c5a cdbe
00000290: 2c8f 92bf b10c 3b3d f61e 393f 9d66 b13e
000002a0: 1c10 5bbf 8007 b4c0 da24 563e 9aba a13e
000002b0: 1833 033e 01e9 843f 80db 0a3f d935 0cbe
000002c0: 2c86 82be f21f 0240 8ce0 16bf 20ed 0a3f
000002d0: 0e61 e6bc 9cf1 ac3f 3ade 8a3e 6a20 b13d
000002e0: 5045 253f 6bdb 93bd bab1 a63f 8086 0f3f
000002f0: bfed 9dbf 8bab c93d 9f72 2e3f a619 303f
00000300: f1cf 263f 71ec bc3f 46d2 c43e 9d07 4d3f
00000310: e8f8 e03e 4398 ec3e 72fb 143f 67c2 fcbe
00000320: ef35 57bf 3df7 723f 5cf9 24be 0e53 043f
00000330: 5170 063f 345e ab3f c3d4 7abd 74c3 19bf
00000340: 2bba 30bf f0a0 27bf e204 57bf ffd7 7abf
00000350: be89 863f d44b bf3e 31ad ca3e d6c8 b63e
00000360: 320e a63f c768 e2be c52b a63e a253 00bf
00000370: f8ca c4bf 69ec 16be 9c34 af3c 41e4 623f
00000380: 5c9e b33e aa07 3fbe d4e1 32be e594 92be
00000390: 9a6f aabe e4db 1dbf 7235 05be 211f 8e3f
000003a0: b6bd 48bf 8c60 e43f b14a 823f 4af6 333e
000003b0: 81cc 1abf 2cf3 57bf 2c75 fabe cd1b 72bf
000003c0: af88 fcbe f8fb c5be 3aeb a93f fd2d b3bf
000003d0: 5aeb d4bf 8dd8 cbbe b781 c8be 1caf 293e
000003e0: e79c 803f b69f 8dbc 6ce1 d53f 504a 44bf
000003f0: d9cf 04bf 45fd fd3e f77c 8e3e 840d abbd

model.0.bias f4 [64]
-1.0799093 0.0152527075 -0.07282465 -0.3005996 -0.15419997 -0.43242696 -0.22751886 -0.46620852
-0.23267129 0.1449474 0.16642046 0.5132698 -0.42825395 0.1828134 0.30975178 0.40485173
0.58615714 0.14920086 -0.08849925 0.41984445 -0.31374866 0.81199986 0.28534812 0.43101448
1.4460344 -0.98868513 -0.54932296 -0.17784815 0.0077701937 0.6875366 0.8533294 0.43987173
-0.5376281 -0.9683339 -0.720346 -0.91671896 0.19924402 0.46543774 -0.68764615 -0.32810622
-0.97023815 -0.43119562 -0.033248454 0.44282937 0.06596856 -0.79461616 -0.025465865 0.24887589
0.5210534 -1.0826602 1.3587121 -0.16077262 0.41994363 0.1189409 -1.027868 0.0706545
-1.0508872 -0.1334097 0.08473118 0.16961737 0.013453511 0.3403755 -0.6878917 0.03630321
00000000: 783a 8abf 7ee6 793c 1725 95bd 31e8 99be
00000010: 99e6 1dbe 1167 ddbe b4fa 68be e2b2 eebe
00000020: 6241 6ebe 176d 143e 206a 2a3e a665 033f
00000030: 1a44 dbbe 7033 3b3e c997 9e3e ba48 cf3e
00000040: 650e 163f 1cc8 183e 183f b5bd daf5 d63e
00000050: aaa3 a0be 39df 4f3f 2619 923e eead dc3e
00000060: a817 b93f 781a 7dbf 6ea0 0cbf d31d 36be
00000070: 1c9d fe3b 6602 303f cc73 5a3f de36 e13e
00000080: ffa1 09bf bbe4 77bf 9868 38bf 18ae 6abf
00000090: a006 4c3e db4d ee3e 9409 30bf 8afd a7be
000000a0: 8761 78bf acc5 dcbe 882f 08bd 88ba e23e
000000b0: 861a 873d f76b 4bbf ca9d d0bc 52d9 7e3e
000000c0: c163 053f 9c94 8abf 47ea ad3f 94a1 24be
000000d0: da02 d73e 4997 f33d 2e91 83bf 4eb3 903d
000000e0: 7983 86bf 8d9c 08be 8a87 ad3d 2db0 2d3e
000000f0: 1d6c 5c3c b345 ae3e ac19 30bf adb2 143d

model.2.weight f4 [64, 64]
0.5787905 -2.2070427 -0.3407852 -0.9370171 0.276232 0.2856461 0.02934396 0.68643266
0.49208894 -0.2523907 0.39540848 0.14884864 0.36780682 0.14731093 0.42734608 -0.22531977
0.38146827 -0.16528746 0.25289762 0.68928415 0.10232837 -0.65164286 -0.2500034 -0.60128134
0.0792259 -1.4606618 0.21973297 -0.22134198 0.17782961 0.4657587 0.004459284 0.54315215
-0.13310684 -2.200444 0.32834783 -0.6818844 0.35595265 0.377636 -0.36540124 0.35706213
0.4651622 -1.8396221 -0.42878753 1.1479763 0.50238866 -0.38378084 -0.6865717 0.4158298
0.45938155 0.9093606 -1.5271554 -1.2683963 0.35531184 0.24405392 -1.0784888 -0.63654023
-0.26809007 -0.031722 -1.121056 0.5236527 -0.9379565 0.77450585 0.7954228 0.19929029
1.4436249 -0.10892557 -0.13788258 0.89474386 0.98375773 0.42426097 0.26245764 0.2082117
0.82932967 -0.6451462 0.4669695 0.07556781 -0.37423298 0.2523831 -0.4757336 0.13090901
-0.06136204 -0.40784523 1.1436924 0.28652284 0.40493315 0.28004354 -1.7476933 0.016658794
-1.0403042 -0.07103315 0.9347062 0.4586584 -0.14672291 -0.012367598 0.37643787 0.40031895
0.58939654 -0.62661856 1.0101498 -0.22065471 -0.28860947 0.57512164 0.4678331 0.6271925
0.8484437 -0.4013972 0.10760835 -0.5403548 0.13906366 1.3190379 1.07917 -0.40719455
0.0012929267 0.9278427 -0.1424151 0.07856474 0.372027 0.17363864 0.80193824 -0.7906885
0.44226992 0.1093287 -0.2806044 -0.46706805 -0.78839904 0.07937257 1.2050664 0.445904
1.0058734 0.23477161 -2.0913153 1.4919101 0.1463671 0.5025543 0.6682582 -0.0420184
0.7604108 -0.54689354 -0.3698101 -0.046419967 -0.17677881 0.38402525 -0.466093 0.29203573
-0.102115884 -0.8477163 1.1988266 0.55219144 0.5253541 0.7601415 -3.4234276 0.20449995
-1.5005037 -0.89246243 1.1099775 1.0326433 -0.01300348 -0.31397322 0.7855397 0.64565635
0.9921833 -1.4204879 1.2871749 -0.015170445 -0.94818634 0.4358521 0.83590716 0.91516364
0.6738217 -0.2999619 -0.057232533 -1.1229272 0.20674771 1.5237895 1.2754356 0.30739644
0.2833091 1.3848276 -0.08504205 -0.15874392 0.15589811 -0.15429473 0.7831041 -3.4552932
-0.7448023 0.2852164 -0.30153817 -0.582066 0.23015733 0.38799408 0.86073667 0.4279679
0.72335064 -0.184039 -1.1715077 0.87662524 0.6818044 0.34597334 0.43118626 0.4655702
0.5760342 -0.34740472 0.24043623 0.3313027 -0.36213472 0.026100317 -0.40252665 0.050889753
-0.41814584 0.031495236 1.1273524 0.16205011 0.51624674 -0.007185976 -2.815223 0.014159277
-0.9727892 -0.42249554 1.1384518 0.61558884 -0.06010843 0.02661991 0.64096004 0.7381619
0.35648945 -1.8482835 1.2924602 -0.04883295 -0.40736 0.06185335 0.7448587 0.88672227
0.6661605 -0.4053655 0.061859667 -0.7811602 0.3644621 0.73663735 0.4874152 -0.57198405
-0.08593761 1.1699606 -0.35018367 -1.3243742 0.3964928 -0.17594188 0.94914025 -1.6966387
-0.61918604 0.0914498 -0.9638441 -0.52152944 -0.82457864 0.22033586 0.7887653 0.42850208
00000000: 9d2b 143f 3040 0dc0 667b aebe 5ae0 6fbf
00000010: 486e 8d3e 3540 923e bf62 f03c 0dba 2f3f
00000020: 15f3 fb3e 5b39 81be fb72 ca3e c76b 183e
00000030: 2d51 bc3e add8 163e 1bcd da3e 3aba 66be
00000040: cf4f c33e 1e41 29be cc7b 813e ed74 303f
00000050: 8991 d13d 11d2 26bf 7200 80be 93ed 19bf
00000060: 3041 a23d f7f6 babf ae01 613e 79a7 62be
00000070: f718 363e ed77 ee3e 2f1f 923b 050c 0b3f
00000080: 294d 08be 13d4 0cc0 351d a83e fa8f 2ebf
00000090: 6d3f b63e 8159 c13e df15 bbbe d9d0 b63e
000000a0: bd29 ee3e bd78 ebbf 0a8a dbbe e3f0 923f
000000b0: 8b9c 003f ec7e c4be 2ac3 2fbf a5e7 d43e
000000c0: 0f34 eb3e dbcb 683f d479 c3bf cf5a a2bf
000000d0: 6feb b53e 45e9 793e ec0b 8abf 4df4 22bf
000000e0: 1a43 89be eeee 01bd c37e 8fbf 1a0e 063f
000000f0: eb1d 70bf 0446 463f d4a0 4b3f c112 4c3e
00000100: b3c8 b83f 5f14 dfbd 1731 0dbe ef0d 653f
00000110: 8cd7 7b3f bc38 d93e d960 863e 7335 553e
00000120: f34e 543f 4d28 25bf a016 ef3e 4cc3 9a3d
00000130: 779b bfbe 5c38 813e 5b93 f3be 030d 063e
00000140: c356 7bbd 17d1 d0be 8364 923f 1fb3 923e
00000150: 6653 cf3e de61 8f3e 6ab4 dfbf 0678 883c
00000160: b028 85bf d479 91bd e848 6f3f 46d5 ea3e
00000170: 883e 16be 77a1 4abc 77bc c03e 9bf6 cc3e
00000180: b1e2 163f 136a 20bf 974c 813f 4ff3 61be
00000190: 9fc4 93be 2c3b 133f d287 ef3e b08f 203f
000001a0: 9b33 593f ef83 cdbe c461 dc3d b154 0abf
000001b0: b466 0e3e 3cd6 a83f 3e22 8a3f ce7b d0be
000001c0: 6c77 a93a 1987 6d3f 44d5 11be 8de6 a03d
000001d0: 537a be3e 54ce 313e d34b 4d3f 906a 4abf
000001e0: 3471 e23e bae7 df3d 61ab 8fbe 8b23 efbe
000001f0: 85d4 49bf 168e a23d 9e3f 9a3f 874d e43e
00000200: 76c0 803f f867 703e 1cd8 05c0 e9f6 be3f
00000210: 42e1 153e 66a7 003f f812 2b3f 7c1b 2cbd
00000220: 48aa 423f 3701 0cbf c057 bdbe dd22 3ebd
00000230: 8105 35be f59e c43e bea3 eebe b585 953e
00000240: 2222 d1bd ef03 59bf 2673 993f 6b5c 0d3f
00000250: 9b7d 063f a298 423f 7019 5bc0 6f68 513e
00000260: 8110 c0bf 6b78 64bf be13 8e3f a82d 843f
00000270: 8c0c 55bc 19c1 a0be 2119 493f bc49 253f
00000280: baff 7d3f 8cd2 b5bf 26c2 a43f 758d 78bc
00000290: 57bc 72bf 0228 df3e 03fe 553f 2a48 6a3f
000002a0: 947f 2c3f 9b94 99be a96c 6abd 14bc 8fbf
000002b0: acb5 533e 890b c33f 7941 a33f 1163 9d3e
000002c0: e40d 913e 0842 b13f 872a aebd c48d 22be
000002d0: c1a3 1f3e 70ff 1dbe 8379 483f 8623 5dc0
000002e0: 5dab 3ebf e207 923e 3663 9abe 4702 15bf
000002f0: 5dae 6b3e 29a7 c63e 3d59 5c3f 9c1e db3e
00000300: 822d 393f b874 3cbe f7f3 95bf 836a 603f
00000310: bc8a 2e3f 6b23 b13e 72c4 dc3e 385f ee3e
00000320: fa76 133f 08df b1be ea34 763e 82a0 a93e
00000330: b969 b9be 55d0 d53c f917 cebe c671 503d
00000340: 3617 d6be 2601 013d 154d 903f 77f0 253e
00000350: bf28 043f 5678 ebbb 9d2c 34c0 50fc 673c
00000360: b708 79bf 5651 d8be cab8 913f 3b97 1d3f
00000370: 4234 76bd ff11 da3c f515 243f 2ef8 3c3f
00000380: c985 b63e 8e94 ecbf 566f a53f 0f05 48bd
00000390: 7d91 d0be f059 7d3d 0faf 3e3f 3b00 633f
000003a0: 7f89 2a3f 118c cfbe 9060 7d3d 1dfa 47bf
000003b0: c79a ba3e 4494 3c3f 7c8e f93e 8c6d 12bf
000003c0: 0f00 b0bd 45c1 953f 464b b3be 1885 a9bf
000003d0: 1b01 cb3e 1c2a 34be dbfa 723f 752b d9bf
000003e0: fa82 1ebf 084a bb3d 7dbe 76bf f482 05bf
000003f0: 9617 53bf b99f 613e 86ec 493f a064 db3e

model.2.bias f4 [64]
0.4665367 -0.83273447 -0.8654222 -0.7534451 0.47655976 -0.080666125 0.282837 -0.6961926
0.22384185 0.17506053 0.816153 -0.4530626 0.02894384 -1.0499487 -0.542259 -0.24995527
-0.040095042 1.0902904 -0.09090511 0.44021368 0.65800565 -0.21261689 -0.72062844 1.2986472
0.30668575 -0.0569095 -0.9925834 0.4088404 0.0006281082 -0.111779414 0.77496374 -0.86356556
0.97217536 -0.86635214 0.0056999773 -0.040025435 0.8477611 -0.95323014 -0.1905275 -0.47617733
-0.12546389 -0.07327821 -0.73885626 -1.2180446 -0.6943856 0.13563175 0.809731 -0.07402611
0.09350025 0.099069096 0.51073945 -0.9634692 0.8192318 -0.8259637 -0.8232439 -0.9878628
-0.11998729 0.5739192 0.121536285 -0.66564304 -0.59799105 0.48942629 -0.056499034 -0.33576792
00000000: e6dd ee3e 162e 55bf 4f8c 5dbf c7e1 40bf
00000010: a4ff f33e 4834 a5bd 03d0 903e ae39 32bf
00000020: cc36 653e 1143 333e 67ef 503f d2f7 e7be
00000030: a21b ed3c b864 86bf 7cd1 0abf 46f4 7fbe
00000040: b33a 24bd a38e 8b3f 752c babd b063 e13e
00000050: 0f73 283f 3eb8 59be 1b7b 38bf 123a a63f
00000060: ea05 9d3e f019 69bd f219 7ebf 8753 d13e
00000070: a1a7 243a 9bec e4bd 0664 463f a212 5dbf
00000080: 7ce0 783f 41c9 5dbf e0c6 ba3b b6f1 23bd
00000090: df06 593f e406 74bf a419 43be 84cd f3be
000000a0: 9b79 00be e312 96bd af25 3dbf e3e8 9bbf
000000b0: 41c3 31bf 0de3 0a3e 884a 4f3f 009b 97bd
000000c0: 0f7d bf3d bde4 ca3d d2bf 023f eba5 76bf
000000d0: 2db9 513f 5b72 53bf 1dc0 52bf 94e4 7cbf
000000e0: e5bb f5bd 5eec 123f 04e8 f83d 9567 2abf
000000f0: f115 19bf 1596 fa3e 886b 67bd c6e9 abbe

model.4.weight f4 [4, 64]
-0.9397653 -0.6521199 -1.0343758 -0.5966808 -2.0634942 -0.7256624 -0.5591958 -0.75517565
-0.37185708 1.6715616 0.98183596 -0.8556776 0.40984777 -0.83802414 -0.98029166 -0.54400426
-0.0037123137 3.099255 0.03025271 1.9901617 0.6761352 -0.386037 -0.8379248 2.3879638
-0.6889822 0.012555998 -1.016973 -0.8709811 -0.8010583 -0.5881169 1.1814291 -0.7733611
2.4712768 -1.56768 -0.10556689 -0.6594813 1.0999439 -0.3775895 -0.44061944 -0.81180274
0.024547355 0.091362536 -0.51641226 -2.5071273 -0.52832085 -0.80922556 1.613367 -0.11553089
-0.38014013 0.23008615 1.5524741 -0.73720354 2.4333317 -1.024338 -1.0581576 -0.59335667
1.4208353 0.47907853 -0.4672257 -0.8167338 -0.12886006 2.284532 -0.1647934 -0.05743037
-0.95266634 -0.8279271 -0.99802834 -0.9720049 -2.2103715 -0.07779256 -1.1633618 -0.52684784
-0.020400189 1.2101208 1.2767802 -0.7429839 0.18817945 -0.98037684 -0.62283903 -0.7731703
-0.013020841 3.1493948 0.08700934 1.9403884 0.34137523 -0.99783957 -0.61385614 1.9054978
-0.5939219 0.011530846 -0.5104231 -0.36680517 -1.158644 -0.5406779 0.70937634 -0.8123826
2.348744 0.5780928 -0.10472778 -0.80272853 1.436877 -0.682775 -0.35006943 -0.087969154
0.007820678 0.029526457 -1.1459382 -2.9425294 -1.0943711 -0.6800216 1.587153 0.098270506
-0.3924625 0.31092313 1.4510419 -0.7504887 2.4615982 -0.78624594 -0.5484005 0.43296063
1.3166859 0.7832942 -0.6776813 -0.32149118 -0.9315485 2.3580325 0.060815774 0.58646697
-0.6678046 -0.54579884 -1.4543116 -0.8958935 -1.8110443 -0.67193514 -0.40127194 -0.5050098
-1.0176214 1.7748369 -0.006648238 -1.7329594 -0.915262 -0.81043446 -0.34756196 -0.594806
-0.08359693 2.9655695 -0.016007645 2.104685 1.282186 -0.2466378 -0.59532 1.4666588
-0.46395695 0.09016986 -1.0088425 -0.9940881 -1.7618996 -0.53577787 1.5617198 -0.54703754
1.6083065 1.0337529 -0.073139176 -0.733796 2.1844177 -1.5995185 -0.17311288 -2.6204772
0.009563892 -0.05605594 -0.669637 -2.0215156 -1.437848 -0.42541504 1.3024222 0.038907275
-0.6903743 1.224007 1.3752046 -0.80898964 2.623831 -0.12906407 -0.7609318 0.4245562
0.8544536 0.84575456 -0.3962966 -0.5870814 -0.60256475 2.3046184 -0.042693377 1.4886422
-1.0314754 -0.79662585 -0.8087832 -0.7413837 -1.8723981 -0.2829767 -0.62082434 -0.54518735
-0.48997703 1.7669617 1.4721562 -0.8037727 0.08037177 -0.6720296 -0.1841619 -0.30968392
0.07799895 3.2400703 -0.09294888 2.0714085 0.5429835 -0.514522 -0.5480592 2.555204
-0.33172092 -0.039313614 -0.746514 -0.948112 -1.2870815 -0.5609057 1.9800421 -0.39496884
2.297259 1.0718454 0.06346696 -0.62700444 0.9523284 -0.57256997 -1.0806128 -1.6107539
0.052689638 0.022137716 -0.6874252 -2.1398551 -0.27073267 -0.65866554 1.0098894 -0.041607156
-0.8881978 0.5975929 1.651611 -0.73280686 2.6346817 -0.78749883 -0.3986159 -0.975198
1.3018435 0.47251335 -0.396499 -0.79570395 -1.0937034 2.3764107 0.012876805 1.0231915
00000000: 7594 70bf 54f1 26bf 6d66 84bf 13c0 18bf
00000010: 4a10 04c0 03c5 39bf 7527 0fbf 3153 41bf
00000020: 0d64 bebe bbf5 d53f 9a59 7b3f b00d 5bbf
00000030: 91d7 d13e c088 56bf 65f4 7abf dd43 0bbf
00000040: 4a4a 73bb 325a 4640 88d4 f73c 9ebd fe3f
00000050: 3217 2d3f a4a6 c5be 3d82 56bf 66d4 1840
00000060: 2361 30bf acb7 4d3c 2c2c 82bf 9ef8 5ebf
00000070: 2812 4dbf d48e 16bf 1239 973f fefa 45bf
00000080: 6629 1e40 bda9 c8bf 7433 d8bd c4d3 28bf
00000090: f6ca 8c3f 6953 c1be df98 e1be 4ed2 4fbf
000000a0: 8917 c93c 481c bb3d 9833 04bf c674 20c0
000000b0: 0940 07bf 6829 4fbf cf82 ce3f 769b ecbd
000000c0: baa1 c2be b49b 6b3e 79b7 c63f 5fb9 3cbf
000000d0: b5bb 1b40 821d 83bf b571 87bf 39e6 17bf
000000e0: eedd b53f c849 f53e 3538 efbe 7715 51bf
000000f0: e4f3 03be c635 1240 9abf 28be 1c3c 6bbd
00000100: f1e1 73bf 08f3 53bf c97e 7fbf 50d5 78bf
00000110: ba76 0dc0 b551 9fbd 0ae9 94bf 80df 06bf
00000120: 4c1e a7bc 3de5 9a3f 896d a33f 3134 3ebf
00000130: 1db2 403e faf9 7abf 6172 1fbf 7dee 45bf
00000140: 5e55 55bc af8f 4940 f431 b23d a65e f83f
00000150: bcc8 ae3e 6a72 7fbf ad25 1dbf 5ae7 f33f
00000160: 440b 18bf e0eb 3c3c 17ab 02bf e3cd bbbe
00000170: 724e 94bf de69 0abf b099 353f 4ef8 4fbf
00000180: d251 1640 e4fd 133f 857b d6bd 9e7f 4dbf
00000190: 96eb b73f 58ca 2ebf 4d3c b3be 2c29 b4bd
000001a0: 4d22 003c 78e1 f13c 1aae 92bf 6752 3cc0
000001b0: 5a14 8cbf e515 2ebf d427 cb3f 0c42 c93d
000001c0: d8f0 c8be 5131 9f3e bebb b93f 0720 40bf
000001d0: d38a 1d40 6a47 49bf fa63 0cbf 04ad dd3e
000001e0: 2a89 a83f f885 483f 867c 2dbf 7e9a a4be
000001f0: f679 6ebf 01ea 1640 f619 793d b322 163f
00000200: 3ef5 2abf 79b9 0bbf e226 babf 4759 65bf
00000210: 4dd0 e7bf f103 2cbf 8473 cdbe 5248 01bf
00000220: 6b41 82bf db2d e33f 76d9 d9bb 9dd1 ddbf
00000230: 9c4e 6abf a278 4fbf a4f3 b1be 3545 18bf
00000240: de34 abbd e4cb 3d40 7722 83bc 29b3 0640
00000250: ac1e a43f 9f8e 7cbe e466 18bf 7abb bb3f
00000260: c48b edbe faaa b83d c021 81bf 8f7c 7ebf
00000270: ed85 e1bf bd28 09bf 6fe6 c73f a70a 0cbf
00000280: fddc cd3f 0452 843f fec9 95bd 0eda 3bbf
00000290: 80cd 0b40 06bd ccbf 8144 31be e6b5 27c0
000002a0: dfb1 1c3c ea9a 65bd 556d 2bbf 8360 01c0
000002b0: 670b b8bf 00d0 d9be c5b5 a63f 3c5d 1f3d
000002c0: 5fbc 30bf 43ac 9c3f b406 b03f f219 4fbf
000002d0: d9ec 2740 5f29 04be 6dcc 42bf 6e5f d93e
000002e0: 79bd 5a3f 5f83 583f 63e7 cabe f74a 16bf
000002f0: af41 1abf de7e 1340 40df 2ebd d48b be3f
00000300: 6307 84bf acef 4bbf 6a0c 4fbf 52cb 3dbf
00000310: beaa efbf 52e2 90be 58ee 1ebf 6691 0bbf
00000320: 45de fabe cd2b e23f 9d6f bc3f 0cc4 4dbf
00000330: f499 a43d 220a 2cbf f094 3cbe e48e 9ebe
00000340: eabd 9f3d 505d 4f40 fb5b bebd f591 0440
00000350: f700 0b3f b7b7 03bf 9c4d 0cbf 7688 2340
00000360: 53d7 a9be 5007 21bd 8b1b 3fbf 78b7 72bf
00000370: 16bf a4bf 8497 0fbf 0572 fd3f 5b39 cabe
00000380: 4b06 1340 3b32 893f f7fa 813d 5d83 20bf
00000390: cbcb 733f f293 12bf 8551 8abf 2f2d cebf
000003a0: 17d1 573d 285a b53c 19fb 2fbf 63f3 08c0
000003b0: 799d 8abe 4e9e 28bf 0e44 813f 446c 2abd
000003c0: ee60 63bf d9fb 183f fd67 d33f 3b99 3bbf
000003d0: a09e 2840 8699 49bf 6217 ccbe 93a6 79bf
000003e0: cfa2 a63f 45ed f13e eb01 cbbe 41b3 4bbf
000003f0: 79fe 8bbf 1d17 1840 3cf9 523c f0f7 823f

model.4.bias f4 [4]
0.9217099 0.5317997 0.471699 0.867131
00000000: 2ef5 6b3f 0624 083f 8882 f13e 4cfc 5d3f
