Game/models/Quantum_Actor_Model.pt (torch, 2205 bytes, 2 tensors)

action_head.x_weights f4 [5, 8]
00000000: 94db 9a40 72f4 d93f 400a 043f 3e08 8c3f
00000010: 2056 a040 b020 a940 c77e 9f40 87cf 0f40
00000020: 0cab 753f 84c4 ac40 5548 9e40 b389 ba40
00000030: 4f8e cf3f 24d6 7440 648d 3740 8dc2 003f
00000040: 8dc1 3f40 eb7d 5d40 45d7 7740 5d2c c03e
00000050: c7b2 ab40 4dbe f83f bf53 8840 7901 8440
00000060: 9793 8240 6412 8b40 0a70 8c3f e8b0 d63f
00000070: bdb8 0040 b252 c740 adcd 813e 9e11 f23f
00000080: 47b7 8840 7234 3d3d 07d2 5640 157c 9540
00000090: a23d 113f 4886 7140 be32 9340 200c d040
4.839304 1.7027724 0.5157814 1.0940015 5.0105133 5.28524 4.9842257 2.2470415
0.9596412 5.3989887 4.9463296 5.829309 1.6215304 3.82557 2.8680048 0.5029686
2.9961884 3.4608104 3.872514 0.37533846 5.3655734 1.9433075 4.260223 4.12518
4.0805163 4.345995 1.0971692 1.6772738 2.0112755 6.2288446 0.2535223 1.8911626
4.2723727 0.046192594 3.356569 4.6713967 0.5673467 3.7738209 4.599944 6.50148

action_head.z_weights f4 [5, 8]
00000000: 4637 5640 5b80 b440 8e3c c440 c7ec bc40
00000010: 4ad5 6240 7ed7 a940 42ec 9540 45d9 9c40
00000020: 7c78 8c40 31a6 2340 04bf b940 0a9a 5b3f
00000030: 32cb 8140 720f b7be 3f86 6940 54d3 a240
00000040: 65df 6140 25cc be40 f023 9c40 877d 1940
00000050: 8800 4b3f ef12 4340 b2b3 5240 1ac8 5c3f
00000060: 4a7d aa3f 256c 1540 50a2 8e40 1511 bd3f
00000070: 676d 8240 6ef1 f53e d2e5 253e 8351 4640
00000080: 4c14 c540 7cc2 b440 a4e8 0240 793f 663f
00000090: 554c e23f 576c 8740 1055 b940 26fe 273f
3.3471236 5.6406684 6.132392 5.9039035 3.5442681 5.307555 4.68509 4.901522
4.3897076 2.5570185 5.8045673 0.8578192 4.056054 -0.3575397 3.6488187 5.088297
3.52926 5.96242 4.879387 2.3982866 0.79297686 3.0480306 3.2922177 0.8624283
1.3319485 2.3347256 4.4573135 1.4770838 4.075855 0.4803576 0.1620095 3.098725
6.1587276 5.648741 2.0454493 0.899406 1.7679545 4.231975 5.7916336 0.65622175
