Game/models/Quantum_Critic_Model.pt (torch, 140425 bytes, 5 tensors)

linear1.weight f4 [128, 8]
000000 65 ca b0 be 71 ba 73 3d e7 42 26 be 33 99 b9 3e
       -0.34529415 0.059503976 -0.16236459 0.36249694
000010 1e e4 ac bd b5 44 9c 3d 84 7b 5c 3e 09 8d df be
       -0.084419474 0.07630292 0.21531492 -0.4366229
000020 3a 8b 7d 3e d5 5e 6b 3e 54 00 28 3e 5b ca 0a be
       0.24760142 0.22985394 0.16406375 -0.13553755
000030 27 b1 8a be 5a b3 7b 3e 67 e0 5f 3e 4c 71 cb bd
       -0.27088282 0.24580136 0.21862946 -0.09933719
000040 fb 1a 52 3d cb 86 a9 3d d1 a0 97 3e 69 62 ae 3c
       0.05129526 0.08277663 0.2961488 0.02128716
000050 6d c3 8c bd 10 92 4c 3e 1e a3 d8 3e 7f e7 6d 3e
       -0.06873212 0.19977593 0.4231195 0.2323284
000060 68 17 65 be 7e 25 d0 be 86 80 25 be c2 10 10 be
       -0.2237221 -0.40653604 -0.16162309 -0.14068893
000070 f8 b6 3e 3f c2 2d f3 3f 50 3d 38 bc e5 81 e7 3d
       0.7449794 1.8998339 -0.011245087 0.11304072
000080 9e 5f 28 bf 3e bc 81 b9 61 7a bf be 14 aa fb 3e
       -0.657709 -0.0002474505 -0.37398055 0.49153197
000090 e7 59 3d 3f 01 a9 47 3f f9 28 09 bf d6 4b 52 3e
       0.73965305 0.77992254 -0.53578144 0.20536742
0000a0 c8 d2 21 bd e7 cf 32 be 36 a2 2d 3e 72 67 81 3e
       -0.039507657 -0.17462121 0.1695641 0.25274235
0000b0 23 91 37 be 25 bf dc be 5b 66 75 be 00 03 bb be
       -0.17926459 -0.43114582 -0.23964827 -0.36525726
0000c0 95 54 b2 be e7 be 5e 3d fd 05 4e be 4e 3c 2b 3f
       -0.34830156 0.054381277 -0.20119472 0.6688889
0000d0 b2 26 bb 3e e1 da 75 3e 9d 5e 8e be 28 51 bc bd
       0.3655296 0.24009277 -0.2780656 -0.09195167
0000e0 5e a9 09 bf 40 8c c4 be 92 49 d6 be e2 7e ac be
       -0.5377406 -0.38388252 -0.41853005 -0.33690554
0000f0 f6 57 d9 bd 33 01 b0 bd 39 47 c7 3d 48 f0 0a bf
       -0.1061248 -0.08593979 0.097303815 -0.5427289
000100 07 46 2f 3e e9 ff 5c be 0f 14 af 3c 3f c5 0d 3e
       0.17116557 -0.21581997 0.02137187 0.13844775
000110 cb 3d 10 bd a4 25 7a 3c d4 9c 0e be 5c a0 48 be
       -0.03521518 0.015267763 -0.13927013 -0.19592422
000120 c0 ae 0a bf 4e a8 93 bd ff 82 18 be 7e 9f a2 3e
       -0.541729 -0.07209836 -0.14893721 0.31762308
000130 dc 9d 4a 3f c0 af d7 3f 14 72 99 bd cc 8d c7 bb
       0.79147124 1.685051 -0.07492462 -0.0060899016
000140 dd b6 9c bd 0d 4f e6 be 88 58 85 be 0d 54 0f bf
       -0.07652066 -0.44982186 -0.26044106 -0.55987626
000150 99 7e 3f be 6b 87 8d be fa 91 de 3d cf 37 49 bc
       -0.18700637 -0.27642378 0.108676866 -0.012281372
000160 57 01 35 bd fc 3c 8f be 62 8e 14 3f 38 50 fc 3b
       -0.04419073 -0.27976215 0.5802976 0.0076999925
000170 12 e0 24 3e ed 6d 17 3f b8 fa 98 3e b7 db 7c be
       0.16101101 0.5915211 0.29878783 -0.2469319
000180 66 3b dc 3d 0d 35 f2 bd d4 d6 d2 bd 70 17 c1 3e
       0.10753517 -0.11826525 -0.102948815 0.37713194
000190 6c 8f dd 3d 59 f6 2c bd 38 8b 95 3e 49 95 07 3f
       0.10818371 -0.042227123 0.29207778 0.52962166
0001a0 f1 b6 a9 be 84 cd 51 3e ae 47 23 be c3 a6 c0 3e
       -0.33147386 0.20488554 -0.15945312 0.3762723
0001b0 77 5f 1f 3f fc 0c 95 3e 44 b1 a3 3d 58 ba c9 3a
       0.6225504 0.2911147 0.07992795 0.0015390618
0001c0 96 61 59 be ff 29 0e 3e 09 4f 9c 3e 4f b1 83 bd
       -0.21228632 0.13883208 0.3052905 -0.06430303
0001d0 a8 59 3c 3e 05 45 55 3d b3 27 29 3e 60 65 76 bd
       0.18393576 0.052067775 0.1651905 -0.060155272
0001e0 97 6a 86 be 69 14 7d bd 67 f9 d7 3d 48 e6 7c 3e
       -0.26253197 -0.061787043 0.105456166 0.2469722
0001f0 6e d3 9c 3d fe b3 ed be 1c fd 45 be 84 ba 97 bd
       0.076575145 -0.46426386 -0.19334835 -0.07408622
000200 25 ba b9 bd 46 04 ba be 14 2a e6 be 69 f5 03 bf
       -0.090687074 -0.36331385 -0.44953978 -0.5154634
000210 59 0b ff 3e 2e fe 92 3f b0 98 80 bd 55 06 93 3d
       0.49813345 1.148382 -0.06279123 0.07178942
000220 77 45 5a 3e 97 ec 37 3e c9 0c 7a bd f7 6e bd 3e
       0.21315561 0.17961346 -0.06104735 0.36998722
000230 25 a8 b6 bd d0 25 9b 3d b4 e9 d6 be 11 6e ff 3e
       -0.0891879 0.075755715 -0.41975176 0.49888662
000240 c7 a7 0a bf a2 30 0b be c7 ce 5f 3e 94 34 d2 3e
       -0.5416226 -0.1359277 0.21856223 0.4105574
000250 3b e0 10 3e f4 16 20 bf 21 c7 2a bf 0e 40 2f be
       0.14148037 -0.62535024 -0.66710097 -0.17114279
000260 04 38 9f 3e 67 86 4e 3d 1a 68 d4 bd 88 6d 06 3e
       0.31097424 0.050421145 -0.10371418 0.1312772
000270 b3 bb b1 3e 42 63 80 3e 2c 6d 49 3e 15 11 31 3d
       0.34713516 0.25075728 0.19670552 0.04322918
000280 38 08 60 bf bf 56 ce be 1a 26 ff be 05 c2 d4 be
       -0.8751254 -0.40300557 -0.49833757 -0.41554275
000290 ea d3 c9 3e d8 1a aa be e0 38 ae bd 74 27 1c 3f
       0.3941949 -0.33223605 -0.08506942 0.609977
0002a0 be ce 81 3f 9e 91 fd be 2b 5b 3e 3f 78 36 3d be
       1.0141218 -0.4952516 0.7435786 -0.1847781
0002b0 5a d5 36 bf 98 b2 8f 3e b3 23 09 bd df 73 3b bf
       -0.714193 0.28065944 -0.03348131 -0.7322368
0002c0 a7 4f e7 bd 64 23 00 be 3d 22 7a 3e 56 5e c5 3e
       -0.11294489 -0.125135 0.24427123 0.38548535
0002d0 0c 16 86 be 6d e4 df be cd d0 b8 be 16 f4 1d bf
       -0.26188695 -0.43728963 -0.36096802 -0.6170057
0002e0 8e 67 ab 3c bc a7 94 be 51 c2 8f 3d bf ec 8d 3e
       0.020923402 -0.2903422 0.07019485 0.27719685
0002f0 7a c4 6b 3e 72 28 de bd bb 70 4a 3e 47 83 90 bc
       0.23024169 -0.10847558 0.19769566 -0.017640723
000300 0b a5 e6 be 2d 33 d9 be ae c7 81 be c9 2f e4 be
       -0.45047793 -0.42421857 -0.25347656 -0.44567707
000310 ae 43 70 be 47 63 81 be b1 d1 74 3e 2d 3d 54 3e
       -0.23463318 -0.25271055 0.23908116 0.20726462
000320 8e b5 80 3e 10 79 13 bd be 23 de 3e cb 90 81 3d
       0.25138515 -0.036004126 0.43386644 0.06326445
000330 a8 e4 e9 be dc 12 a4 be e1 6d 7d bd e8 1c be bc
       -0.45682263 -0.3204564 -0.061872367 -0.023207143
000340 25 0d 39 bf 49 dc ba bd e1 ed ca be d9 70 11 be
       -0.7228568 -0.09124047 -0.39634612 -0.14203204
000350 a1 d7 af 3e be 75 76 be 7b 29 9a be f6 be cb bd
       0.343442 -0.24068353 -0.30109772 -0.09948532
000360 32 b5 25 3f 68 2f 86 be 2a 7c 4f 3e 2d 0d 98 be
       0.6472961 -0.26208043 0.20262209 -0.29697552
000370 fe 41 9d 3e c7 f9 10 3f 6a 49 59 3e f3 ce 36 3f
       0.3071441 0.5663113 0.21219411 0.7140953
000380 00 8b 3c bf 8d e2 a8 be a6 53 1b bf 35 14 84 be
       -0.736496 -0.32985345 -0.6067451 -0.25796667
000390 ec 4d b1 bd c5 4d 8e be 4f 27 55 3e 4b 11 b6 3e
       -0.086574405 -0.27793708 0.20815776 0.35560068
0003a0 3e d5 44 3e 7c 0c 7b be 1b 70 ef 3e 9f 0e 75 be
       0.1922197 -0.24516481 0.46765217 -0.23931359
0003b0 89 0f 03 3e fa a7 d6 3d de 90 1c 3e 18 6b 75 3e
       0.12798895 0.10481258 0.15289637 0.23966634
0003c0 d3 62 12 be e0 76 9e 3d 07 ab c5 bd d7 99 b9 3e
       -0.14295511 0.07737517 -0.096517615 0.36250183
0003d0 34 08 3e 3e 0e 74 0a be 68 2b 4c 3e 24 8e 01 3f
       0.18557817 -0.13520834 0.19938433 0.50607514
0003e0 43 92 48 bd 3c ec 2f 3e 45 ef a6 bc 32 5f ab be
       -0.04896761 0.1717996 -0.020377764 -0.33471066
0003f0 dc ca 18 3e c9 27 83 3d ad 2f b4 be 13 74 eb bd
       0.14921135 0.06404073 -0.35192624 -0.11496749

linear1.bias f4 [128]
000000 b3 1f 61 be 85 4f 4e 3e e4 f2 98 3e 39 81 6a 3d
       -0.21984749 0.20147522 0.2987281 0.057252143
000010 63 1a 05 3e 25 75 97 3e 20 1c a8 3a 44 44 ce bd
       0.12998347 0.29581562 0.0012825765 -0.100716144
000020 fa b1 a0 be 61 45 20 bd 3f 8d 31 bd 9a df 08 be
       -0.31385785 -0.039128665 -0.043347593 -0.13366547
000030 03 57 b3 3e 44 11 a5 be df 37 0e 3e 59 f6 5b 3e
       0.35027322 -0.32239735 0.138885 0.21480693
000040 4f 9c 32 3d c6 94 16 3e 5d 26 b8 3e 47 fe 2d 3e
       0.0436061 0.1470519 0.3596677 0.1699153
000050 27 07 96 3d fa b7 ca ba 66 eb a0 3e 18 85 f4 be
       0.07325583 -0.0015466206 0.31429595 -0.47757792
000060 f1 0c 06 be fc 63 60 be 86 d8 80 be 57 5f b9 be
       -0.13090874 -0.21913141 -0.25165194 -0.3620555
000070 a3 85 e6 bd fc 3b 75 be 7c 91 ac 3d b4 53 2a be
       -0.11255958 -0.23948663 0.084261864 -0.16633493
000080 63 34 93 3d 0d 92 3c 3d 2b f7 ee bd 0f 17 09 3d
       0.07187726 0.046037722 -0.11668237 0.033469256
000090 36 a8 10 be e3 93 80 be 6d 12 0c be f0 c0 d9 be
       -0.14126667 -0.2511283 -0.13678904 -0.42530012
0000a0 cc c6 fe bd 29 9f e2 be 98 3c 90 be 6c ca 79 be
       -0.12440261 -0.44262055 -0.2817123 -0.24393624
0000b0 96 86 f6 3e 15 81 bb bd 32 f5 b5 3d 39 53 d5 bd
       0.48149556 -0.0915548 0.08884658 -0.10416264
0000c0 d4 c0 c2 be ad 3f 65 bd 7a 53 2a bd 45 e4 8f 3e
       -0.3803774 -0.05596893 -0.041583516 0.28103843
0000d0 ef 25 86 bd 51 82 34 3d 4c c7 6d be 00 e3 68 3d
       -0.06550204 0.044069592 -0.23220557 0.05685711
0000e0 b4 18 af 3d 9c a3 31 3d 09 38 c6 3e f0 a7 76 3c
       0.085496336 0.04336892 0.38714626 0.015054688
0000f0 5a 5e 39 3e 23 38 53 bd 35 4a 8a 3c 72 db 17 be
       0.18102399 -0.051567208 0.016881088 -0.14829805
000100 a7 df d0 bc 15 67 49 bd 0f 77 11 3e 11 fc ae 3e
       -0.02549727 -0.049170572 0.14205573 0.34176686
000110 ad d0 73 bc 7f bc a3 3d a0 b2 d1 3d 5c b4 d1 3e
       -0.014881295 0.07994937 0.10239148 0.40957916
000120 70 27 63 bc c4 da 1d 3e b8 8e b5 bd e5 73 80 3e
       -0.013864383 0.15415484 -0.08865112 0.2508842
000130 b9 47 11 bc 70 9d 63 be c7 6a 8a 3e 1c 8b ad 3e
       -0.008867198 -0.22228026 0.2703459 0.33895195
000140 ef 42 99 3e 7c a9 41 bc f5 69 d6 be c2 94 2e be
       0.2993388 -0.011820193 -0.41877714 -0.17048934
000150 7d c0 63 bd 1f 75 40 bd 4c d7 7a bd ba 33 a6 be
       -0.055603493 -0.046986695 -0.06124048 -0.3246134
000160 11 fc 94 be f2 f2 10 bd 1f 33 b8 bd 9f b4 e6 bd
       -0.2909856 -0.03538794 -0.089941256 -0.112649195
000170 4d ac 79 3d 86 6b 82 be dc ad 72 3d 59 99 2e 3e
       0.060955334 -0.2547266 0.059247836 0.17050685
000180 36 cc 61 3e 05 07 ca 3e cb 09 6f be f9 67 19 be
       0.22050557 0.3945848 -0.2334358 -0.14981069
000190 d4 52 8e 3e 22 a1 08 be a7 12 6b bb eb c3 92 be
       0.27797568 -0.13342717 -0.0035869272 -0.286651
0001a0 26 68 ef 3d b5 b8 b7 be 47 ac 94 be 80 79 8d 3e
       0.116897866 -0.35883108 -0.29037687 0.2763176
0001b0 e7 8e 8b be 5f 2b a5 3e 87 82 37 3b fa 92 08 be
       -0.27257463 0.32259652 0.0028001384 -0.13337317
0001c0 1e 4d 71 be 42 e5 55 3e d4 0c a2 3e ef f9 ac 3e
       -0.23564574 0.20888236 0.31650412 0.33784434
0001d0 a6 a9 ab 3d f3 61 5e 3d 55 c3 82 3f 3e 92 55 3e
       0.08381967 0.05429263 1.0215861 0.20856568
0001e0 9e 78 c3 be 96 d4 1c 3e f3 c9 34 bb 94 b5 72 3e
       -0.3817796 0.1531547 -0.0027586191 0.23702079
0001f0 c9 08 9f 3d ae 3c b4 3e 15 0f d3 3e 81 46 57 3e
       0.077653475 0.35202545 0.41222444 0.21022989

linear2.weight f4 [256, 128]
000000 7e 86 07 3e 22 be 35 3d 5f 06 bc 3d 74 8f 12 3f
       0.13234898 0.044370778 0.09180903 0.5725014
000010 b4 98 54 3e 34 79 f8 3d 9e 06 3b 3e 39 90 5b 3e
       0.20761377 0.12132493 0.18264243 0.21441735
000020 72 a1 cd bd ce 95 12 3f 1d 96 ff 3d ec e3 27 bd
       -0.10040559 0.57259834 0.12479804 -0.040988848
000030 fe 21 63 3c 90 16 b5 3d 78 22 06 3c 17 13 8d 3d
       0.013863085 0.08842194 0.008186929 0.06888407
000040 10 4f e2 3e 42 f4 4d bd 83 d2 2f 3e d8 63 b3 3c
       0.44200945 -0.05028177 0.17170148 0.021898195
000050 ff 81 fc 3e a9 9b 0d 3f cb b2 b9 3d 1b be 0f bc
       0.4931793 0.55315644 0.09067305 -0.008773352
000060 77 25 a4 3e d8 ac 2f bc 53 f4 ac 3d 22 ce 91 3e
       0.32059833 -0.0107223615 0.08445039 0.2847758
000070 77 00 96 3e 40 73 9d 3d b8 a2 f7 3c 9a 88 35 3d
       0.2929723 0.07687998 0.030228958 0.044319727
000080 41 eb 6a 3e 22 a5 89 bc e9 12 7e 3e 92 2d 98 3e
       0.22941305 -0.016802374 0.24811901 0.29722267
000090 5f 6b e8 bd 6a b5 dc 3d 08 e1 7d 3e 2b 1b 98 be
       -0.113486044 0.107767895 0.24792874 -0.29708228
0000a0 fb 34 1f bd f4 f0 49 be 25 f7 e9 3d 9e e2 82 3e
       -0.038868885 -0.19720823 0.11424092 0.2556352
0000b0 f9 dc 8a 3e a3 0c 9f 3e 8f 99 de 3d 07 71 6b 3d
       0.27121714 0.3106433 0.10869133 0.05748084
0000c0 3d 9c a7 3d 6f 11 01 3f a1 40 16 3e 78 d9 7b 3d
       0.08184097 0.50417227 0.14673091 0.06148669
0000d0 3c 60 9f 3e 91 fa db 3d c5 f1 1e 3e 29 54 98 bc
       0.31128109 0.10741151 0.15521915 -0.018594818
0000e0 1b 2a 17 3f 6b 1e aa 3e 2d 92 14 3e 48 c2 d3 3b
       0.5904862 0.33226332 0.14508887 0.006462369
0000f0 fe 80 58 bd a9 8e e1 3d 7c b2 86 3e 35 97 ab 3c
       -0.05285739 0.110135384 0.26308048 0.020946125
000100 74 47 84 3e 19 9b b1 3e 6a e4 ee 3d ab c4 dc 3d
       0.25835764 0.34688643 0.1166466 0.10779699
000110 85 f7 2b 3d 1a e5 01 3f 40 a8 17 3d 95 26 7c 3e
       0.0419841 0.50740206 0.03702569 0.24624093
000120 9b 62 74 3e 91 d5 59 bd c7 70 8a 3e 75 79 0a 3e
       0.2386574 -0.05318219 0.27039167 0.13522895
000130 d5 23 b6 3e d2 23 a7 bc ef 3f 41 bd 8f 40 cd 3e
       0.35574213 -0.020402823 -0.047180112 0.40088317
000140 ef 21 1a 3f ad dd 25 3e e0 09 04 bd 34 55 ac 3e
       0.6020803 0.16197844 -0.03223598 0.33658755
000150 5c 62 ba 3e db 5a 02 3f 89 8d 98 3e dd 78 00 3e
       0.36403167 0.50919884 0.29795483 0.12546106
000160 31 b4 6c bd 29 d2 01 3e 98 47 f4 3d 2e fd ae 3d
       -0.05778903 0.12677826 0.11927718 0.08544384
000170 93 bf 95 3e e1 b0 d3 3d db ea a3 3d 93 72 87 bd
       0.29247722 0.10336471 0.080037795 -0.0661365
000180 ab 90 f7 be f6 c0 35 3e 0a f9 9b 3e 33 22 89 3e
       -0.4835256 0.1774939 0.3046344 0.26783904
000190 a9 a2 24 bd 44 4e f6 3c 2f 60 86 3e 1c da 6b 3e
       -0.040194187 0.030066617 0.26245257 0.23032421
0001a0 cc bc 27 3e 6d 80 98 3d 29 61 8c bd 1f 39 05 bd
       0.16380614 0.0744637 -0.06854469 -0.032525178
0001b0 b3 db 91 3c ac 57 6a 3e f4 2c 9c 3e 74 e6 ca 3c
       0.017804956 0.22885007 0.30503047 0.024768092
0001c0 be 5a 31 3e af 94 3a bd e6 ef ac 3d 4b 74 eb 3d
       0.17319772 -0.045551952 0.084441945 0.114967905
0001d0 27 53 ab b8 ed eb d5 3e f0 b3 ae bf e3 c7 83 3c
       -8.169404e-05 0.4178156 -1.3648663 0.016086524
0001e0 6f 47 8b 3d 5a fe 95 3e 03 90 a8 3e 61 5c 88 3e
       0.06800734 0.29295617 0.32922372 0.2663298
0001f0 22 61 a2 bd 57 6b 00 3e 21 43 27 3e c4 4a d1 3d
       -0.07928683 0.12540947 0.16334201 0.102193385
000200 3d 1c 85 bd 62 a9 bf 3c f7 70 3c 3c 01 c2 09 bb
       -0.06499527 0.023396198 0.011501542 -0.0021020176
000210 a1 ec 01 3d 45 fc f7 bd 31 08 49 bb 1d 8d a2 3d
       0.031719808 -0.121086635 -0.0030675048 0.079370715
000220 37 25 0a 3d c3 d9 6f bd 3d e8 80 bd 9e a2 89 bd
       0.033726897 -0.058557283 -0.06294296 -0.0672047
000230 85 dd 04 be 64 b8 db bc db 54 bb 3b df 8d 44 bd
       -0.12975128 -0.026821323 0.0057169027 -0.04798686
000240 01 55 9d bc 50 02 a1 bd 2b 5f c9 bd 85 fe 0d bd
       -0.019205572 -0.07861769 -0.09832605 -0.034666557
000250 0c a6 69 bd 4b ab 94 3d 63 5c 8e bd 0d c1 b1 3d
       -0.05704312 0.07259234 -0.06951215 0.086794
000260 a1 41 4e bd 67 93 4b bc f9 d3 90 3c a7 c5 f4 bd
       -0.050355557 -0.01242528 0.017679201 -0.11951762
000270 53 2d 08 3d 9c 50 00 3c 80 7e 2a bd 3a 17 5d bd
       0.03324635 0.007831719 -0.041624546 -0.05397723
000280 f4 58 97 3d 5d 71 52 bd ca c6 68 bd 12 c6 02 3d
       0.07390013 -0.051377643 -0.056830205 0.031927176
000290 58 13 f0 3b 2b b0 39 3d f0 e3 3c 3d de 1f 1b bd
       0.0073265247 0.045334022 0.046115816 -0.037872188
0002a0 9b 29 6b bd 3e a8 fb 3c e7 b0 01 be 99 d8 a6 3d
       -0.057412725 0.030719873 -0.12665139 0.081467815
0002b0 33 21 8e 3d 07 17 e5 3c fa 23 c6 bd 86 fa f2 bd
       0.06939926 0.027965082 -0.09674831 -0.1186419
0002c0 68 30 7a bc ee e2 35 3c 6d 3f ac bd d8 ea 3b 3c
       -0.01527033 0.011101468 -0.08410535 0.011469565
0002d0 89 4c 25 bd bb 67 55 bd 0d 14 47 bd fa f5 e9 bd
       -0.040356193 -0.05210088 -0.048603106 -0.114238694
0002e0 02 7c d5 bd 32 f3 9e bd c4 49 5e bd e7 a8 fc 3c
       -0.10424043 -0.077612296 -0.054269567 0.030842258
0002f0 f6 9b cb bd 02 ee 03 3d d8 29 d0 3c 98 38 1a 3b
       -0.099418566 0.032209404 0.025410578 0.0023532268
000300 e0 b6 aa bd 89 8e e1 bd da 51 c1 bd 3f 3e ea bc
       -0.08335662 -0.110135145 -0.0943944 -0.028594134
000310 9c a8 60 3c 17 2d a6 bc 88 6e 18 3d 5d da 6a 3b
       0.013712075 -0.020285172 0.037214786 0.003583572
000320 da 44 e3 bd c2 34 0f 3c 49 a4 2e 3d 5f f0 95 3b
       -0.11097117 0.008740606 0.042637143 0.0045757736
000330 cb 69 b7 bd 52 24 a9 bc 1f a8 f8 bd 86 2c 8c bd
       -0.08955725 -0.020647202 -0.121414416 -0.0684443
000340 21 4e ed 3c 97 41 e2 ba e6 5f 6e bd 17 c1 b3 3d
       0.028967919 -0.0017261979 -0.058196925 0.08777063
000350 a9 fc 2d 3c 14 bb ce bd 0f 51 2e bd 31 ae a3 bd
       0.010619321 -0.10094276 -0.042557772 -0.07992209
000360 5b 16 9b 3d 2e 89 df bc c1 25 07 3b 76 f0 af 3c
       0.07572623 -0.027287092 0.0020621868 0.021476965
000370 9b 1e 3b 3d e5 96 0c bc 2b cf c6 bc ef fc 28 bd
       0.045683485 -0.008580898 -0.024268707 -0.04125684
000380 e3 71 83 3d f1 31 fc bb 37 fc ca bd d4 20 ac bd
       0.064182065 -0.007696383 -0.099113874 -0.08404699
000390 6b e2 94 bd 3f be 11 3d d4 c2 71 bc 18 68 32 3d
       -0.07269748 0.035581823 -0.014755923 0.043556303
0003a0 ee 55 93 ba 55 80 ae bd b8 1e 6f 3b 3d 7e fa 3c
       -0.0011240819 -0.08520571 0.0036486816 0.030577773
0003b0 d6 e9 5b 3c 3f f4 b8 bd 1f 8f 9b 3d 13 7a 9c bd
       0.01342245 -0.09030961 0.075956576 -0.07640471
0003c0 fe ee dc bc 4f 3f 35 3c 25 a1 b9 bd f5 f2 ad 3c
       -0.02696943 0.011062457 -0.09063939 0.021234015
0003d0 f8 d9 35 bd bb 2a 90 3a 93 bc f3 bc d8 0d 3b bc
       -0.044397324 0.0010999063 -0.029753005 -0.011416875
0003e0 b5 9b fa bb bb f3 82 bc 98 f9 e7 bd 3d 51 16 bd
       -0.0076479563 -0.01598536 -0.11326903 -0.03669857
0003f0 69 bf 88 bd 60 f4 e1 bd 25 f4 73 bc 5c ec 07 bd
       -0.066771336 -0.11032939 -0.014889752 -0.033184394

linear2.bias f4 [256]
000000 c9 63 3b 3e ff 54 66 bd 9c 78 4b 3e e4 cf 15 3e
       0.18299784 -0.056233402 0.19870228 0.14630085
000010 5a 6a e0 3d f5 f8 73 bd 62 a3 16 3e fa 59 24 3e
       0.10957785 -0.059563596 0.14710763 0.16049948
000020 65 8c 55 3e 72 63 cd bc f8 70 f7 3c a4 14 92 3c
       0.20854338 -0.025071833 0.030205235 0.017832108
000030 ea 94 81 bd 65 b0 07 3e d7 56 5f 3d 31 a3 d6 bd
       -0.06327231 0.13250883 0.054526176 -0.10480345
000040 70 17 51 3f a1 8d 44 3e f2 b6 77 3c a5 3b 26 3e
       0.8167639 0.19194652 0.015119301 0.1623369
000050 a1 e5 5c 3e 5d 21 2a 3e 29 50 89 3d bd 04 a5 3d
       0.21571971 0.1661429 0.067047425 0.080575444
000060 aa 3f 5b bd 9f 68 89 3d 63 e9 04 3e 93 f1 f6 3d
       -0.05352751 0.06709408 0.12979655 0.120577954
000070 e7 97 58 3e 65 60 30 3e d0 72 cf bd eb 9e e7 3d
       0.21151696 0.17224272 -0.101293206 0.11309608
000080 3c 65 e6 bb 8e 9e f1 bc bd 92 a8 bf 6e 68 3a 3c
       -0.007031111 -0.02949455 -1.3169781 0.011377437
000090 38 93 d2 3d 0d c9 a3 be 0e 33 35 3e 6a db 79 3c
       0.10281986 -0.31989327 0.17695257 0.015250066
0000a0 f8 84 57 3e 9c fa 3b 3e 93 b4 f3 bd f7 d3 03 3e
       0.21046817 0.18357319 -0.11899676 0.12873827
0000b0 22 2a e8 bd ac 1e ee bc 30 8a 50 3c bf 79 50 3e
       -0.11336161 -0.02906736 0.012728259 0.20358942
0000c0 ba b5 40 bd 91 9b f3 bd c0 13 39 bd 44 4d f2 bc
       -0.047048308 -0.11894906 -0.04518485 -0.029577859
0000d0 74 47 f6 3d 67 86 54 3e d3 24 8a bd 9e 7a 4a 3e
       0.12025347 0.20754395 -0.06745305 0.19773337
0000e0 05 32 23 3e cc f4 dc bc 65 2a 94 3d a4 52 b9 bc
       0.1593705 -0.026972197 0.072346486 -0.022622414
0000f0 7e fa 0f 3e 2d 57 98 3d 4b c6 91 bd ed 06 d3 bd
       0.14060399 0.074385025 -0.071178995 -0.10304055
000100 83 ec 37 3e 99 75 76 3e fa d6 c0 3c 81 c4 f3 bc
       0.17961316 0.24068297 0.023540009 -0.029756786
000110 b3 ad 78 3e 70 74 90 be 5f 12 bd 3d 52 b5 b2 bd
       0.24285011 -0.28213835 0.0923202 -0.0872599
000120 ba 71 ed bd e2 18 b3 bd 29 e3 04 3d 05 6e 56 3e
       -0.11593957 -0.087449804 0.0324432 0.20940407
000130 97 f6 cf bd 61 1c 60 be f3 68 10 3e bd 5b c5 3d
       -0.10154455 -0.21885826 0.14102535 0.09636638
000140 8d 2e 4a 3e 54 87 3e 3e 30 6f 01 3d 91 c7 88 bc
       0.1974432 0.18606311 0.031600177 -0.016696723
000150 c6 5d 25 3e 7a 6c cd bc 52 d9 0f 3d d5 a3 36 bd
       0.16149053 -0.02507614 0.035119362 -0.044589836
000160 c1 e1 41 3e 93 23 f5 3b db 4b c0 3d 17 37 2b bd
       0.18933775 0.0074810474 0.09389468 -0.041800585
000170 70 9b 7b bd 93 dc 0e 3e 59 03 2e 3e 3a 65 32 3e
       -0.061427534 0.1395133 0.16993465 0.17421427
000180 43 1f 86 bd 0c 1a 31 3e 2e 2a 74 39 0d 13 0b 3e
       -0.065489314 0.17295092 0.00023285366 0.13581486
000190 fb ac 84 bd 77 7c 1e 3e 75 d8 34 3b a8 79 41 3e
       -0.06478306 0.15477167 0.0027594839 0.18894064
0001a0 56 eb b3 bd d2 04 36 3e b4 86 fc 3d 28 0d 2d 3c
       -0.08785121 0.17775276 0.1233038 0.010562219
0001b0 1f 2f 09 be 8e b7 ec 3d f7 63 26 be a7 7e a0 3d
       -0.13396882 0.11558448 -0.16249071 0.07836657
0001c0 96 97 f4 3d 21 da cc bd 7f 03 1e 3e 34 ec 28 3e
       0.11942975 -0.10002542 0.15431021 0.16496354
0001d0 99 cf b6 bc 08 b5 23 3e 40 fe 44 bd 7e 57 22 3e
       -0.022315787 0.15987027 -0.048094034 0.15853688
0001e0 61 fe 41 3e 72 7e c3 bd 7d 8b ca 3a 32 5a 5c 3e
       0.18944694 -0.09545602 0.0015452948 0.21518782
0001f0 ec 40 61 3e 05 96 b2 3d 09 6f 56 3e d3 ee 22 3b
       0.21997422 0.0872002 0.20940794 0.0024861589
000200 c1 0b 8d bd b5 80 56 3d db e7 c9 bd ca 98 3d 3e
       -0.068870075 0.05236884 -0.09858676 0.18515316
000210 4e 13 02 3e ba fb 5a 3e 9d e3 1c 3e 6b da fe bd
       0.12702677 0.21385089 0.15321203 -0.12444004
000220 b8 38 c7 bc c7 59 d6 bd 53 6a 07 bd 32 92 fc 3d
       -0.024319038 -0.104663424 -0.033060383 0.12332572
000230 e0 c8 55 3e dc d1 fe 3d 1e 26 8e bd bd e2 fa bd
       0.20877409 0.12442371 -0.06940864 -0.12250278
000240 44 e1 86 bd e1 ec b9 bd 9f a2 72 bd ce 28 d6 bd
       -0.06585935 -0.09078384 -0.05923712 -0.104570016
000250 f0 86 d1 bc 0e 40 aa 3d 0a 98 99 3e 2a 28 10 bd
       -0.025577039 0.08312999 0.2999881 -0.035194553
000260 9f 25 6f bf 55 a1 43 3e 06 03 10 be f1 c7 4a 3e
       -0.9341678 0.19104512 -0.14063653 0.19802834
000270 b5 78 6d 3e 8b 50 5f bf 81 99 ac 3c 14 5b f6 3c
       0.23190577 -0.87232274 0.02106929 0.030072726
000280 d9 bc 4c 3e 0f 1e 8c bd c0 86 6c bd e3 5e 86 bb
       0.19993915 -0.06841671 -0.057745695 -0.004100667
000290 fc 81 c4 bd 38 46 14 bd 25 52 e2 3d 0b 7a 02 bd
       -0.09595105 -0.03619978 0.11050824 -0.03185467
0002a0 a3 2e 67 bd 60 9d 81 bd 77 9d db bd b3 c3 1f 3e
       -0.05644096 -0.06328845 -0.107233934 0.15601997
0002b0 f7 52 ca bd 32 c9 19 3e 66 cb 51 3e aa 73 bc 3d
       -0.098791055 0.15018156 0.20487747 0.09201749
0002c0 1a f2 e1 3c cf 7b d5 3d d9 80 d3 3b ce e7 45 3e
       0.027581263 0.10424005 0.006454569 0.19326708
0002d0 9c 2a a6 3c 04 fd e2 3d e5 6e de 3d 73 7e 46 3c
       0.02028399 0.11083415 0.10860995 0.012115109
0002e0 f4 5f de bd d8 35 89 bd c1 ae 3c 3e 26 b8 6a 3e
       -0.10858145 -0.06699723 0.18426038 0.2292181
0002f0 61 0d 6a 3c 3a 24 96 bc 6f 74 e4 3c 33 88 b0 bb
       0.014285416 -0.018327821 0.027887551 -0.00538733
000300 26 6d 15 3e fe 65 32 3e 7b 79 54 bd 24 de 14 3e
       0.14592418 0.1742172 -0.051873665 0.14537865
000310 96 06 1c bd 9b 01 51 bc 2a 08 27 3e 00 42 9d bd
       -0.03809222 -0.01275673 0.16311708 -0.07678604
000320 25 29 25 3e e6 b5 54 3a e3 f8 77 bc a2 33 91 bd
       0.16128977 0.0008114263 -0.015135023 -0.07089926
000330 54 45 04 3e e9 8d e9 bc d8 d7 b0 3d 35 0e 04 3e
       0.12917072 -0.02851005 0.08634919 0.12896045
000340 df c5 93 bd f9 70 13 bd 0b 99 2d 3e f1 ee e4 bd
       -0.07215475 -0.03599641 0.16952913 -0.11178387
000350 6d 11 81 3e d9 af 48 3d 01 0e 00 3e f6 09 4c bd
       0.25208607 0.048995826 0.12505342 -0.049814187
000360 e5 04 54 3c 82 88 b2 bd cf ac aa bd f6 f6 36 3e
       0.01294062 -0.08717443 -0.08333742 0.17867646
000370 91 ca 04 bd de 6c 93 bd bb 83 04 ba 26 6f 99 bd
       -0.032419745 -0.07198499 -0.000505503 -0.07491903
000380 dc e7 35 3e 42 98 7f bb d8 31 ba 3c 68 71 54 3e
       0.17764229 -0.0039000665 0.022728845 0.20746386
000390 1e 60 b5 bc ad f6 c1 bc cd 4d a7 bd c6 62 48 bb
       -0.022140559 -0.023677194 -0.08169136 -0.0030576452
0003a0 65 18 5f be 01 b5 07 3e 22 c9 d8 bd 8b 74 76 be
       -0.2178665 0.13252641 -0.10585238 -0.24067895
0003b0 6c b8 d8 bd 96 ea 0e 3e e6 6d 9a bd c9 e9 ea 3d
       -0.10582051 0.13956675 -0.07540493 0.11470372
0003c0 0d 38 64 3e 39 48 c7 bd 3f 3b 15 3d 3e 38 39 3e
       0.22287007 -0.09730572 0.036433455 0.18087861
0003d0 4c 25 78 3e 65 ac 13 3e 2c 7c 68 3d ef 0b 52 3d
       0.24232978 0.14421232 0.056759045 0.051280912
0003e0 38 04 1d 3e c3 a7 1e bd 27 13 a7 bd 0f d1 35 3e
       0.1533364 -0.03873421 -0.0815795 0.17755531
0003f0 bd f7 9b 3c b1 2e 2c 3e b4 a3 6a bd 30 96 4b 3e
       0.01903903 0.16814686 -0.057285026 0.1988151

linear3.weight f4 [1, 256]
000000 aa 95 20 be 3c db 83 3b 28 15 1a be 36 d2 17 be
       -0.15682092 0.0040239375 -0.15047133 -0.14826283
000010 44 8f 83 bd 32 7d 5e bb c8 a8 0a be fd 3a 05 be
       -0.0642381 -0.0033949134 -0.13540947 -0.13010783
000020 20 d2 38 be 60 75 39 bc e6 71 a1 bc c4 22 12 3e
       -0.18048906 -0.011319488 -0.019707631 0.14271075
000030 9c b2 0e 3d 78 45 0c be 25 df 8c 3c 17 77 85 3d
       0.034838304 -0.13698375 0.017196247 0.06516855
000040 df 87 9d 3f 53 8b 39 be 8f ac 18 bb cc da f7 bd
       1.230709 -0.18119554 -0.0023296212 -0.12102279
000050 72 fc 22 be 6b ce e9 bd 10 9f 13 be 31 bb 27 be
       -0.15916613 -0.11416324 -0.14416146 -0.16380002
000060 d5 4b 44 bc f9 21 13 be 76 0c 33 be 26 d0 f1 bd
       -0.01198097 -0.14368428 -0.17485222 -0.11807279
000070 46 8a f3 bd 57 cb db bd 63 d3 c4 3b 68 a1 f6 bd
       -0.11891608 -0.10732143 0.0060066446 -0.120425045
000080 47 77 6d bc cb 0a 8f 3c 3e 20 c5 3f e1 7f b3 bc
       -0.01449377 0.017461201 1.5400465 -0.021911563
000090 c9 1a 0a be 72 1a 3a bc a0 77 2c be ff 92 39 bc
       -0.1348678 -0.011358844 -0.16842508 -0.0113265505
0000a0 53 98 0e be 8a f9 fe bd e4 72 37 3c 52 42 0e be
       -0.13925295 -0.124499395 0.011196826 -0.13892487
0000b0 93 56 3c 3c 73 87 00 bd 39 00 dd 3b 08 c0 2a be
       0.01149525 -0.031379174 0.0067444113 -0.16674817
0000c0 0c 2f 73 3c d2 11 57 3c cc eb 0c bc 98 5b a7 bc
       0.01484276 0.013126807 -0.00860114 -0.020429417
0000d0 3b cc e3 bd 1c 1b 02 be ed d5 97 3d 4a df 36 be
       -0.11122938 -0.12705654 0.0741385 -0.17858616
0000e0 54 21 08 be 50 e8 b6 3c 60 4f f4 bd 85 66 40 3b
       -0.13293964 0.022327572 -0.11929202 0.0029357981
0000f0 13 6e 14 be f7 c7 12 be 11 d8 a9 bc 84 2b 29 ba
       -0.14495115 -0.14334093 -0.020732911 -0.0006453323
000100 5a ab 16 be e7 da 36 be 24 f8 8b 3c 40 2c a4 b9
       -0.14713803 -0.17856942 0.017086096 -0.00031313486
000110 58 0b 41 be d3 63 26 3f c4 10 28 be 0e aa cb bc
       -0.18851984 0.6499607 -0.16412646 -0.024861362
000120 a6 a6 cb 3c 52 f8 47 3a 96 2e cc 3b 54 42 2b be
       0.024859738 0.000762825 0.0062311394 -0.16724521
000130 7c a1 40 3c 63 f7 1f ba da fd 08 be 0a fa 11 be
       0.011757251 -0.0006102232 -0.13378087 -0.14255539
000140 f1 c2 1c be 39 d6 24 be 17 d1 04 be e4 9c f5 bc
       -0.15308739 -0.16097344 -0.12970386 -0.029982038
000150 5f 83 2b be 88 74 ce 3c e2 38 91 3b 5b 56 02 3c
       -0.16749333 0.02520205 0.00443183 0.007955159
000160 c7 42 11 be 89 a2 5f 3c d5 56 06 be d1 88 a2 3c
       -0.1418563 0.013649591 -0.13119061 0.01984063
000170 d3 ea e8 39 68 28 0d be e2 05 1e be 92 0f b4 bd
       0.00044425446 -0.13784945 -0.15431932 -0.08792032
000180 b9 f0 90 bc 6a 41 14 be 81 a6 a0 bc 88 f1 32 be
       -0.01769291 -0.14478078 -0.019610645 -0.1747495
000190 f7 ae 85 bb 4d e9 17 be 1b b9 f3 3c 66 f4 2f be
       -0.0040796953 -0.14835091 0.029751351 -0.17183074
0001a0 25 a5 b9 3b b4 5b 07 be 78 d9 00 be e8 cf 33 3c
       0.0056654387 -0.13218576 -0.12582958 0.010974862
0001b0 f5 f9 3e bc 67 33 a4 bc 91 d9 81 bd 47 6a 05 be
       -0.011656274 -0.020044042 -0.063403256 -0.13028823
0001c0 e0 3b f0 bd df f7 8f 3c 4f 42 90 bd 73 14 01 be
       -0.1173017 0.017574249 -0.07043897 -0.12605457
0001d0 6a b8 e1 3d 83 84 0a be d1 e4 0d bd 05 3c 03 be
       0.11021502 -0.13527112 -0.034642044 -0.12815864
0001e0 0a 13 39 be 3d a3 5c bc 0f 01 c2 bc d3 e6 12 be
       -0.18073669 -0.013466653 -0.023682145 -0.14345865
0001f0 64 2f 10 be ad a3 fc bd 50 72 1e be db 8f ab bc
       -0.14080578 -0.12335906 -0.15473294 -0.02094262
000200 a3 d7 45 3c d1 e6 58 3c ee e9 e2 bc 85 25 35 be
       0.012075338 0.013238625 -0.027699437 -0.17690094
000210 8b 21 3d be a3 f8 3b be ea 13 33 be 44 93 96 3d
       -0.18469827 -0.18356566 -0.17488065 0.073523074
000220 e2 dd 8a 3c ee 6d b2 bc dc 80 c6 3c 69 3b 33 be
       0.016951505 -0.021780934 0.024231367 -0.17503132
000230 f8 5a 05 be 0f df 13 be 7a 0b 8c bb a4 4c 71 bd
       -0.13022983 -0.14440559 -0.004273829 -0.05891098
000240 87 5d e7 3c 29 03 a3 3c 06 f8 ed bc b0 4d 1f 3c
       0.02824284 0.019898968 -0.02904893 0.009723112
000250 58 b4 ae 3c 62 38 1e be 79 61 0a be d6 aa 96 37
       0.021326229 -0.15451196 -0.13513745 1.7960945e-05
000260 f9 a2 9b 3f d8 5a 13 be dd f7 bc bd 67 12 1d be
       1.215911 -0.14390123 -0.09226964 -0.15339051
000270 d2 1c 24 be 9c 07 33 3f 66 2a 99 39 4d 8e 15 3a
       -0.16026619 0.69933486 0.00029214023 0.00057051034
000280 d2 4a ef bd 74 ac 91 3c 46 f1 c0 3c a9 d4 c1 3c
       -0.11684193 0.017782427 0.023552548 0.023660975
000290 3e ac 23 3c a3 55 96 bc 5e 6e e9 bd 96 4f fa bb
       0.009989796 -0.018351382 -0.11398004 -0.007638882
0002a0 4c 96 15 bd 5d 3f 1f 3e 26 c1 c6 3c 6d 7a 1a be
       -0.036520287 0.15551515 0.024262022 -0.15085764
0002b0 72 c7 84 3c ec 8b 2f be 93 3f 31 be 9f 1a 33 be
       0.016208384 -0.1714322 -0.17309408 -0.17490624
0002c0 04 36 8a bc 94 dc 62 bd cd d5 88 bb ae 51 24 be
       -0.01687146 -0.05538614 -0.0041758777 -0.16046783
0002d0 c9 8d c7 3b 1a 15 f8 bd 2e 2a db bd 46 47 b4 3b
       0.0060899 -0.121134 -0.107014045 0.0055016605
0002e0 26 75 94 3c 04 8b 62 bc 53 be 14 be da d6 00 be
       0.018122267 -0.013827089 -0.14525728 -0.1258196
0002f0 09 39 0e bd 6f 09 4f bc bb e0 99 bc 31 19 e8 3b
       -0.03472236 -0.0126365265 -0.018783918 0.007083081
000300 1e d7 05 be 46 0d 0f be a1 cd 00 bd f5 57 a7 bd
       -0.13070342 -0.13969907 -0.031446103 -0.08171073
000310 2c ed ce bc da 1f 95 bc da 60 1b be 49 92 eb 3c
       -0.025259577 -0.018203665 -0.15173665 0.028756278
000320 87 1c 13 be f9 58 0e bd f6 16 0f bd 3c 21 8d b9
       -0.14366351 -0.03475282 -0.034934007 -0.00026918377
000330 f8 b3 0e be 33 e2 f0 bc fb 57 17 be 3d 41 22 be
       -0.1393584 -0.029404735 -0.14779656 -0.15845199
000340 52 62 03 3d 80 bd d5 3b 67 7d 34 be 80 8f ed 3b
       0.032076187 0.0065228343 -0.17625962 0.0072497725
000350 02 d2 f1 bd ed 6a ef bc e9 a0 36 be 2f 1f ff bb
       -0.11807634 -0.02922579 -0.1783482 -0.0077857
000360 eb c2 f7 3c f9 74 5e bc 8c 8c 9c bc 77 e6 23 be
       0.030244311 -0.013577693 -0.019109987 -0.16005884
000370 03 1d 3c 3b 3d e7 f4 bc b2 6a 88 bb b3 9b 9c 3c
       0.0028703816 -0.02989542 -0.0041631097 0.019117212
000380 c8 ed 0f be d7 69 70 bb 91 7c d9 bc f8 19 0d be
       -0.1405555 -0.003668418 -0.026548656 -0.13779438
000390 66 0e 4b bc 6d 25 17 bb d6 5b 69 bc 22 3c dd bc
       -0.01239357 -0.002306308 -0.014243087 -0.027006213
0003a0 fd c5 e3 3d ea 5b 2a be a7 c0 f6 3c 30 7f ec 3d
       0.11121748 -0.16636625 0.03012116 0.115476966
0003b0 49 86 c0 bc bb bc 21 be fd ac a5 bc 23 42 06 be
       -0.023501532 -0.15794651 -0.020224089 -0.13111167
0003c0 ea 44 35 be 1d 28 29 bb 5e 3d 0f bc 53 79 00 be
       -0.1770207 -0.0025811263 -0.008742658 -0.12546282
0003d0 89 96 2d be 72 4c 2b be 51 57 02 3d 16 68 3c 3c
       -0.16951956 -0.1672838 0.031821553 0.011499425
0003e0 0d 26 f1 bd 26 f2 9f bc b0 09 bf bb 96 7e 0b be
       -0.11774836 -0.019524645 -0.0058300123 -0.13622507
0003f0 35 ad 24 bc 71 7d 2c be 31 a0 cf bb d8 ec 0f be
       -0.010051061 -0.16844727 -0.006336235 -0.14055192
