Game/models/Quantum_DQN_Model.pt (torch, 2301 bytes, 2 tensors)

model.encoder.quantum_layers.y_weights f4 [5, 5]
0	0x4048956b	3.1341197
1	0x404793e1	3.1184008
2	0x3eced758	0.4039867
3	0x400ab900	2.1675415
4	0x40c8fe1f	6.2810206
5	0x404da285	3.2130444
6	0x4048eae1	3.1393359
7	0x40bd4faf	5.915977
8	0x4053649c	3.3030157
9	0x40c8e0b3	6.277429
10	0xbd95bb01	-0.07311059
11	0x40caaed1	6.33384
12	0x40623171	3.5342677
13	0xbe9db927	-0.30805323
14	0x4047bdc4	3.1209574
15	0x4045349a	3.0813355
16	0x40ca62dd	6.3245683
17	0x3fe5f319	1.7964813
18	0x3f14f718	0.58189535
19	0x404a5d5e	3.1619487
20	0xc05c2d01	-3.4402468
21	0x40cae684	6.340639
22	0x3fdbe3d5	1.7178904
23	0x40d2b9aa	6.585164
24	0x409f27f9	4.9736295

model.encoder.quantum_layers.z_weights f4 [5, 5]
0	0x40c5bdc6	6.1794157
1	0x409eee72	4.966607
2	0x404e7f2a	3.2265115
3	0x40cccf53	6.400308
4	0x404085e7	3.0081728
5	0x402adfd5	2.6699116
6	0x3ef58466	0.47952574
7	0x40c0dec5	6.0271935
8	0x3e252e0d	0.16130848
9	0x40cb3321	6.3499913
10	0x4099e807	4.8095737
11	0x4001159e	2.0169444
12	0x40c36fa2	6.107377
13	0x4059c722	3.402779
14	0x4070bf90	3.761692
15	0x4101f0d2	8.121294
16	0x40828868	4.079151
17	0x404c884b	3.1958187
18	0x3f266c82	0.6500932
19	0x40781865	3.876489
20	0x405fb6c3	3.49553
21	0x40860da1	4.1891637
22	0x3e7c4650	0.24636197
23	0x3fa791d0	1.3091373
24	0x3f0c2053	0.5473682
