executions/dqn_cartpole_20251026_020506/dqn_quantum_policy.pt (torch, 2763 bytes, 4 tensors)

model.input_scale f4 [4]
1.0537983 0.14054549 -6.94139 0.72714233
00000000: dde2 863f 28eb 0f3e de1f dec0 0026 3a3f

model.output_scale f4 [2]
101.206856 99.78722
00000000: e969 ca42 0e93 c742

model.q_layers.y_weights f4 [5, 4]
-1.4130311 3.140753 3.2110732 4.6905355 3.8025737 3.1500862 2.0025647 6.0960383
0.37750837 3.0559697 2.297966 2.0409138 4.430669 6.4068527 6.052762 4.270213
4.7905293 0.018611748 0.43234637 2.728455
00000000: 34de b4bf 1902 4940 3982 4d40 de18 9640
00000010: 5e5d 7340 039b 4940 052a 0040 bf12 c340
00000020: c748 c13e 0295 4340 e011 1340 559e 0240
00000030: 0ac8 8d40 f004 cd40 3ab0 c140 96a5 8840
00000040: 044c 9940 aa77 983c 815c dd3e 029f 2e40

model.q_layers.z_weights f4 [5, 4]
4.9968853 3.432503 -2.0522099 3.6750033 1.465847 0.00044764727 0.2307044 6.770527
4.698204 1.6741232 2.7230988 3.7095807 6.567309 -1.1175363 0.43820107 1.1535189
2.998518 0.041492384 0.37496132 5.1756425
00000000: 7ce6 9f40 21ae 5b40 6857 03c0 4133 6b40
00000010: e0a0 bb3f 33b2 ea39 c63d 6c3e 28a8 d840
00000020: b057 9640 ab49 d63f 4047 2e40 c569 6d40
00000030: 6527 d240 6e0b 8fbf e45b e03e 82a6 933f
00000040: b8e7 3f40 ebf3 293d eefa bf3e dd9e a540
