executions/actor_critic_lunar_lander_20251026_023422/Quantum_Critic_Model.pt (torch, 140977 bytes, 5 tensors)

input_layer.weight f4 [128, 8]
000000 24 38 c2 be 11 db 0a be 75 7a 19 bf e4 04 42 bd
       -0.37933457 -0.1356013 -0.5995248 -0.047367945
000010 9a e0 e1 3e 7d 73 0c 3e e2 db ae bd e0 09 3b bd
       0.4411667 0.1371593 -0.08538033 -0.045663714
000020 16 c6 25 be 72 13 52 3e f9 69 a3 3c ea 07 60 3e
       -0.16188845 0.2051523 0.019947993 0.21878019
000030 60 14 a1 3e a5 79 6d 3e cb e6 cc 3d 2b 60 6a be
       0.31460857 0.23190935 0.10004958 -0.22888248
000040 7d 80 05 3f 8f 4f c4 be ad 6a 5a 3e e8 cb d3 be
       0.5214918 -0.38341948 0.21329756 -0.41366506
000050 2e 65 8b bd a9 fc df 3e be 9e 2f 3e 3b f0 e3 3e
       -0.06806408 0.43747452 0.17150399 0.4451922
000060 89 af 93 bd c6 75 03 bf 8b 77 bb bd 0e c1 34 bd
       -0.07211215 -0.51351583 -0.091536604 -0.044129424
000070 93 ca e6 3d 02 67 85 3d 73 96 40 3e fd eb 0f be
       0.11269107 0.06513788 0.18807392 -0.14054866
000080 97 cd 8d 3d 71 b1 b3 be 37 61 0d bd 49 9f 4e 3e
       0.06923979 -0.35096315 -0.03451654 0.2017795
000090 7b 2c f8 3d 89 62 d9 3e 58 50 9f 3c 23 99 08 bf
       0.12117859 0.4245799 0.01944749 -0.5335867
0000a0 0a 7c 42 3f 57 8e c5 be 83 d4 6d 3e ca d6 d5 be
       0.7597052 -0.3858516 0.23225598 -0.41765434
0000b0 99 7f 15 be 15 f1 d4 3e 21 f5 4c 3f 31 93 db bd
       -0.14599456 0.4159018 0.8006154 -0.10721434
0000c0 f9 88 0d 3e ca 4c c8 3b 26 f6 78 3e 6d e5 2f 3e
       0.13821782 0.0061126696 0.24312648 0.17177363
0000d0 72 28 7e be e3 75 22 bf f1 8e 5a 3e e9 30 7f bd
       -0.24820116 -0.6346113 0.2134359 -0.062302504
0000e0 22 09 55 3d d5 08 d9 3d 79 8d 80 3e e5 a5 dc 3e
       0.052010663 0.10597388 0.25107935 0.43095317
0000f0 71 de 35 3e 77 b4 77 be 7f 0e c4 be a5 e1 b8 3d
       0.17760636 -0.24189936 -0.3829231 0.09027413
000100 7c ed 84 3e 42 68 47 be 1d 69 9f be cc b2 46 3e
       0.25962436 -0.19473365 -0.31134883 0.19404143
000110 11 78 a6 be bf 12 6c 3e 45 76 13 3e 5d 56 ca bd
       -0.32513478 0.23054026 0.14400585 -0.09879754
000120 fb 67 11 3e 03 c9 df 3c f5 9e f7 3c d2 81 c4 3d
       0.14199822 0.02731753 0.030227164 0.09595074
000130 63 77 3d 3e a1 dd 9f 3b 3b 94 ff 3d ab 11 97 bd
       0.18502574 0.004878715 0.124794446 -0.07376417
000140 c0 13 ad 3d 68 f7 a8 bc 90 2c 8b be 2d 40 ac 3e
       0.08451033 -0.020625785 -0.27182436 0.33642712
000150 07 53 7f bd 3c e1 26 3e fe f9 ec 3d 4f a5 be 3d
       -0.06233504 0.16296858 0.1157112 0.09308874
000160 eb 31 cf be fa 14 eb be ba b3 8b 3e 99 26 0a be
       -0.40467772 -0.4591444 0.27285558 -0.13491286
000170 a4 a7 1f 3e aa 57 b3 be 7d b6 aa be ee 37 cd be
       0.15591294 -0.3502782 -0.33342353 -0.40081733
000180 7a ce 9a bc 0d af 1a 3f 8c 6c 4e 3e b8 57 f3 3c
       -0.018897284 0.60423356 0.20158595 0.029704913
000190 d3 4c 9a be 88 88 8c 3e 04 22 81 bd 71 1b 27 3e
       -0.30136737 0.27447915 -0.06305316 0.16319062
0001a0 50 ef 01 3f 0c 0d c6 be 58 a4 b1 3e 1a 36 db bd
       0.50755787 -0.3868183 0.34695697 -0.107036784
0001b0 d7 b3 d5 3d ea b0 8d 3e 43 f1 06 bc 7c 10 18 3e
       0.10434692 0.27674037 -0.008236232 0.14850038
0001c0 f1 8d e2 3e d5 a3 07 bd 34 51 f0 3d 1c 39 bd 3e
       0.44248918 -0.033115227 0.11734238 0.36957633
0001d0 c4 fe a6 be 18 e3 2f be dd 28 20 3c 19 2b ff be
       -0.32616246 -0.17176473 0.009775368 -0.49837568
0001e0 c8 17 b3 3e 15 73 6a be f8 87 79 3d 6e 00 90 3e
       0.3497908 -0.22895463 0.060920686 0.28125328
0001f0 a7 df bf 3e 99 50 b1 3b 16 6f da 3e ad bb c8 be
       0.3747532 0.0054112193 0.42662877 -0.39205685
000200 39 72 c8 bd af 61 c3 be f1 83 85 be 68 e4 0f bf
       -0.09787411 -0.38160464 -0.26077226 -0.56207895
000210 55 f3 a9 3e 50 d7 dc 3e 46 77 12 3e dd 9b 5f bc
       0.3319346 0.4313302 0.14303312 -0.013648001
000220 3c 20 35 3f b3 6d e4 be 81 5c 16 3e 55 c2 c4 bd
       0.7075231 -0.44614944 0.14683725 -0.096073784
000230 f9 0a d1 be 1f c4 4c 3d 5e 7a 1e bd 1c c0 8c 3e
       -0.40828684 0.049991723 -0.038690917 0.27490318
000240 e9 dc 58 3e b2 fe f7 3d 5c 32 82 be 74 ea 40 bd
       0.2117802 0.12109126 -0.25429046 -0.047098592
000250 94 c2 88 3e 8f a1 de 3e b6 83 a0 be 7d 03 8d be
       0.2671095 0.43482634 -0.31350487 -0.27541724
000260 b6 8a 13 bf 26 81 22 bf e4 6d 0e bf 43 72 f3 be
       -0.5763353 -0.63478315 -0.5563643 -0.47548112
000270 b1 05 59 3d c2 d5 47 bb b5 a5 a8 3e 3a 87 bd 3e
       0.052983943 -0.00304924 0.32938924 0.37017232
000280 22 95 28 3f 6f d2 c1 3d 36 7b b6 3e 2f 47 2e 3e
       0.6585256 0.09463965 0.35640877 0.17019342
000290 aa 77 8a 3e 64 a9 b0 3e 7b bd 31 bf 17 fa 52 bd
       0.2704442 0.34504235 -0.6942975 -0.051508036
0002a0 b3 10 ed 3e d9 b8 3d be 8d c6 a4 3e 6d 5e c9 bd
       0.46301803 -0.18527545 0.32182732 -0.098324634
0002b0 e8 0e 9e be 9e df 97 be 68 7f 2c 3e 39 82 58 bf
       -0.30870748 -0.29662794 0.16845477 -0.84573704
0002c0 91 e5 d2 be 1a f6 38 be 32 04 01 bf 10 fa 83 be
       -0.4119077 -0.1806263 -0.50397027 -0.2577672
0002d0 fc 9b 0a 3f 21 7a 94 3e 23 b5 46 3e 08 84 99 be
       0.54144263 0.28999427 0.19405036 -0.29983544
0002e0 6f 27 b3 be 0b 49 23 3e 93 f5 d0 bd 80 29 b4 3e
       -0.34991023 0.15945832 -0.102030896 0.35187912
0002f0 d8 83 d6 bc 4e a6 11 bd c2 a1 2c 3e 2c f9 c4 be
       -0.026185915 -0.03555899 0.1685858 -0.38471353
000300 69 68 19 3f 29 25 0d bd 78 66 29 3e 76 76 eb 3e
       0.5992494 -0.034459267 0.16542995 0.45988816
000310 c3 42 99 be 9a f8 35 3e c3 1e 92 be 89 49 7a be
       -0.29933748 0.17770615 -0.28539094 -0.24442114
000320 5a c1 10 be 85 47 42 be f2 b6 72 3e a9 2e 0a bd
       -0.14136258 -0.18972595 0.237026 -0.033735905
000330 4d 8b 94 3d 4a 99 bc bd 8f 3b 7e be 39 72 94 be
       0.07253132 -0.09208925 -0.24827407 -0.28993395
000340 0f a0 90 3e cd d2 9b be 01 c3 88 3e 65 ef 8c 3e
       0.28247115 -0.30434266 0.26711276 0.27526394
000350 43 6f b4 3e de 1f b7 bd 81 ed 42 3e c5 21 d9 be
       0.35241136 -0.08941625 0.19035913 -0.42408577
000360 51 94 a3 be d1 c3 dd be 48 12 b0 3d 55 95 e8 be
       -0.31949094 -0.4331346 0.08597237 -0.4542643
000370 0d 2d 7e be 6c d0 50 bf 66 09 ea 3d 23 06 b9 3e
       -0.24821873 -0.81568027 0.11427574 0.36137494
000380 07 4f 43 be 8b f0 bd 3e 8d 5b da 3e 89 13 bd bc
       -0.19073115 0.37097582 0.42647973 -0.023080604
000390 8f 32 52 3e 94 7f 92 be eb 48 2c 3e 84 85 a8 3c
       0.20527099 -0.2861296 0.16824691 0.020571478
0003a0 e0 49 05 3e e3 ce 58 3e 5c 27 78 3e a1 ed c7 3e
       0.13016462 0.21172671 0.24233764 0.39048484
0003b0 a0 b5 fc 3e d0 10 90 3d 6d a6 cd be 6a 31 c8 be
       0.4935732 0.07034457 -0.40166035 -0.391002
0003c0 98 a7 27 3e e7 86 9f 3d 69 65 ce 3d 18 33 25 bd
       0.16372526 0.077894025 0.10077936 -0.04033193
0003d0 91 47 86 3e 1b 1c 24 3e c1 70 53 bf 14 77 04 3f
       0.26226476 0.16026346 -0.82593924 0.517442
0003e0 24 97 04 bf d7 ea b0 be 05 8d aa 3d 32 e0 04 3e
       -0.5179312 -0.3455417 0.083276786 0.12976149
0003f0 c9 90 a2 3e aa f3 ae 3d d1 9a 35 be a1 5c 32 bf
       0.31751087 0.08542569 -0.17734839 -0.6967259

input_layer.bias f4 [128]
000000 31 17 2a be 2c 4a 99 be 5c 9a 0e be eb de 07 3f
       -0.1661041 -0.299394 -0.13926071 0.5307452
000010 92 9c ea 3e 58 1e 47 be d5 7a 40 be 39 58 82 3e
       0.4582258 -0.19445169 -0.18796857 0.25457934
000020 35 57 04 bf 73 e2 c5 be 4a c9 fd bc 00 1b c3 3e
       -0.5169557 -0.3864933 -0.030979771 0.38106537
000030 51 c3 15 be ed 38 07 3e 75 0c 21 bc 96 32 ad be
       -0.14625289 0.13205309 -0.00982963 -0.33827657
000040 24 a6 8d bd a2 88 22 3e 73 ef 47 be 34 d5 44 bb
       -0.069164544 0.15872434 -0.19524936 -0.0030034306
000050 9b ed 90 be 45 f0 9f bc e9 8c 1f be 67 52 99 be
       -0.2830628 -0.01952375 -0.15581097 -0.2994568
000060 03 8d 91 bd 95 41 45 3e fa 1c 15 be 9f 26 63 be
       -0.07106974 0.19263299 -0.14561835 -0.22182702
000070 bd 05 9d bd 2e 6e 6b bd 89 13 af be 5a 51 cf 3e
       -0.0766711 -0.057478122 -0.34194592 0.40491754
000080 ea a3 28 be 23 76 47 be e1 41 47 be 46 86 5b be
       -0.16468778 -0.1947866 -0.19458725 -0.2143794
000090 74 4e ab be cf 5a 8a 3e 63 21 06 bf 91 53 8b 3e
       -0.33458292 0.27022406 -0.52394694 0.27212194
0000a0 93 5d d3 3d 6a 36 15 be 3a 58 8f be 9e 4d 41 bd
       0.10320582 -0.14571539 -0.27997 -0.047193162
0000b0 2f 4e 40 be a0 b7 90 3e 2e f9 ef bd 25 79 2e 3e
       -0.18779825 0.28265095 -0.11717449 0.170384
0000c0 5a bb a5 3e 15 53 ea 3e 32 91 3b be 62 aa 85 be
       0.323695 0.45766512 -0.18317106 -0.26106554
0000d0 b6 1a 9d be fc 07 c0 bd 52 c9 87 bd 24 86 a4 3e
       -0.3068444 -0.09376523 -0.06630196 0.3213359
0000e0 d2 df aa bd 5f 1e de be ba f6 31 3d 6f c4 b6 be
       -0.083434716 -0.43382546 0.043448187 -0.35696742
0000f0 88 4b d1 3e 3b 70 61 3d 1e 9f 9d 3e 3c 3a 12 3e
       0.40877938 0.055038672 0.3078546 0.14280027
000100 ef 61 ac bd f0 94 88 3e b3 fe 57 3e 4f 85 77 3d
       -0.08417117 0.2667613 0.21093254 0.060429867
000110 7d ed 92 3e 63 38 d9 be 7f d7 5b be f8 19 15 bf
       0.28696814 -0.42425832 -0.21468924 -0.5824275
000120 0a d5 83 3d 40 5e 17 be 9d e3 df 3e 77 d3 c7 bd
       0.06437118 -0.14782047 0.43728343 -0.097571306
000130 66 36 36 3e 4c fc b0 bd a0 66 3b be 6a 10 d0 be
       0.17794189 -0.08641872 -0.18300867 -0.40637523
000140 11 41 f8 3c db ed ea 3e c9 11 ec 3d 1a cf 84 3d
       0.030304464 0.45884594 0.1152683 0.06484814
000150 03 0b 12 be d2 af 83 3d 20 d4 35 3d c4 35 8c be
       -0.14262013 0.064300194 0.04439175 -0.2738477
000160 f6 88 a8 be 84 90 b0 be 40 11 94 3e df d8 6c 3d
       -0.32916993 -0.34485257 0.2891941 0.057824012
000170 e0 33 22 3d b0 e9 1a 3d da e2 95 be 9b 85 38 be
       0.039600253 0.037820518 -0.29274637 -0.18019716
000180 75 0b 82 3e b1 cf 7f bd 76 34 88 be 75 d6 49 3e
       0.25399366 -0.06245393 -0.26602525 0.19710715
000190 7a 53 a8 be e1 b0 a4 3d 42 d9 27 be 78 17 a0 bd
       -0.32876188 0.080415495 -0.16391471 -0.07816976
0001a0 21 f1 7b 3e 40 c6 a1 3e 6e da 60 bd f0 bc 11 3d
       0.24603702 0.31596565 -0.05489581 0.035580575
0001b0 ae da 34 be 18 12 7a be e6 99 b4 3d 5a fb 57 3e
       -0.17661545 -0.24420965 0.08818416 0.21091977
0001c0 ff f4 35 be 77 ca dc be 49 81 cf 3d 42 fd 85 bc
       -0.1776924 -0.43123218 0.10132081 -0.016356114
0001d0 89 e2 4f 3d 7d 5a 91 3e a6 d7 a7 3e 3a 14 af bb
       0.05075315 0.2838935 0.32781714 -0.0053429874
0001e0 a0 76 0d 3e db f2 d3 bc 3c 65 78 3e a5 b5 0d 3e
       0.13814783 -0.025872638 0.24257368 0.13838823
0001f0 6b fa 25 bc a7 64 c9 3e 10 19 05 3d 0d 6b 09 3e
       -0.010130505 0.39334604 0.032494605 0.13419743

hidden_layer.weight f4 [256, 128]
000000 c1 39 98 3e 11 4f cc 3d ef be 8a 3e 77 0b 84 3e
       0.29731563 0.09976018 0.27098796 0.25789997
000010 f7 76 66 3e fe f0 75 3e e9 8b 02 3e ba e3 f3 3c
       0.22506319 0.24017712 0.12748684 0.029771674
000020 6a 4c d7 3d f9 16 8c 3c be 1e 3e bd 6a be 58 3e
       0.10512622 0.017100798 -0.046416037 0.21166387
000030 29 9f 8e be 04 e0 2b 3e e6 87 4f 3e 3e 68 59 be
       -0.27855805 0.16784674 0.20266685 -0.21231171
000040 cf 11 66 3e c5 e2 26 3e 72 2f d7 3d a1 76 de 3e
       0.22467731 0.16297443 0.10507096 0.43449882
000050 11 b9 c4 3d 81 be 77 3d 2a 51 25 3e 70 ec 27 3d
       0.09605611 0.060484413 0.16144243 0.04099697
000060 68 71 28 3e 57 8c 0a 3e 41 15 26 be d1 11 7b 3e
       0.16449511 0.13530098 -0.16219045 0.24518515
000070 04 09 9f bd b6 36 43 bd 80 f9 5f 3d 7a 92 a0 3e
       -0.077653915 -0.0476596 0.0546813 0.31361753
000080 2c 1b 58 be 57 50 a7 3e 8a a6 84 bc e3 d6 6e 3d
       -0.21104115 0.32678482 -0.016192693 0.0583104
000090 6f 31 46 bd a8 4b 7a 3e 20 f0 8b bd 87 73 2d 3e
       -0.048386987 0.24442923 -0.068329096 0.16938601
0000a0 e9 b2 f5 bc 85 5e a4 3e 9f 0e 1f 3e 76 7e 72 3e
       -0.029992538 0.32103363 0.15532921 0.23681054
0000b0 68 b4 ba 3d b5 95 01 be 4c 4b 0e be c6 bc 5a 3d
       0.09116441 -0.12654765 -0.13895911 0.053402685
0000c0 83 af 8b bd dd f6 42 3e 4a ae 92 3e 8d 59 79 bb
       -0.068205856 0.19039483 0.28648597 -0.0038047761
0000d0 b2 67 b3 3d 8d 7b 87 3d c2 10 91 3e b6 be b2 3d
       0.08760013 0.06615362 0.28333098 0.087277815
0000e0 44 4c 62 3e 17 d7 22 3d 57 5c c3 3e d6 4e 7d 3c
       0.22099406 0.039755907 0.38156387 0.0154606905
0000f0 cb 7a 94 3e 62 5d cb 3e 44 94 20 3e d3 04 89 3d
       0.28999934 0.39719683 0.15681559 0.06690373
000100 3a 86 2d 3e 2e 74 0d 3e d9 7f 82 3e b8 40 dd bc
       0.16945735 0.1381385 0.25488165 -0.0270084
000110 d8 dd 06 3e 54 08 e4 3d d8 6f 1c 3e ec 3c 1c 3d
       0.13170564 0.11134401 0.1527704 0.038144037
000120 c0 5f 4d 3e 08 d0 c0 3e a5 8f 9e 3e f4 a3 2d 3e
       0.20056057 0.37658715 0.30968967 0.16957074
000130 67 49 8f 3d 0a 75 95 3e 70 ee 22 be 0f de 8c 3d
       0.06996422 0.29190856 -0.15911269 0.06878292
000140 27 31 88 3e 19 12 b8 3e 0f fe 83 bd cf 9a 81 3e
       0.266 0.35951307 -0.06444942 0.25313422
000150 7e 7a 02 3e 1f dc 01 3f 00 b4 c4 bb 86 07 dc 3e
       0.1274204 0.50726503 -0.006002903 0.4297449
000160 67 bd 28 3e d8 98 05 3e 53 d7 09 3e 54 e8 a3 3e
       0.16478501 0.13046587 0.13461046 0.3201319
000170 de 8a b4 3d c3 ff 4e 3d 43 34 a8 3d bc 16 b7 3e
       0.08815549 0.050536882 0.08213093 0.35759532
000180 63 dc f9 bc 0e 35 3f 3e c2 07 5a 3d 19 70 b4 bd
       -0.030500596 0.18672583 0.053230055 -0.088104434
000190 dd 5a 64 3e b5 25 19 3e 3d c0 10 bd 4e 7a a4 3d
       0.22300287 0.1495579 -0.035339583 0.0803114
0001a0 ad 3a 2a 3d 74 42 d0 3d 23 01 00 3f 1f 3e e4 bd
       0.041559864 0.10168925 0.50001734 -0.11144661
0001b0 9c 35 c5 3c 5b b7 3d 3e 53 39 df 3d 3c 7b fa bc
       0.024073415 0.18526976 0.108996056 -0.03057634
0001c0 46 89 bf 3e e8 cd 19 3e 99 29 31 3c c8 c4 44 3d
       0.3740942 0.15019953 0.01081314 0.048039228
0001d0 4c f7 9d 3e 2e 25 cd 3e 4b 45 58 bc f2 3a 72 be
       0.30852735 0.40067428 -0.0132001145 -0.23655298
0001e0 d0 4b 9e 3c 2b 53 64 be a8 c1 89 3e 4b 43 0a be
       0.01932326 -0.22297351 0.2690556 -0.13502233
0001f0 ad 5a 83 bc 8f c3 1a 3e 98 59 50 3e 62 40 0c 3e
       -0.016034449 0.15113662 0.20346677 0.13696435
000200 54 d3 01 ba 99 e4 97 bd 7f 0a ae bc 2e 9b 76 bd
       -0.000495245 -0.074166484 -0.02124524 -0.060206585
000210 0e 7f a6 bd ff fa 66 bc 48 77 d0 bd cf 9b 49 bd
       -0.081297025 -0.014097928 -0.10179001 -0.049220856
000220 f0 64 ae 3c 2e fc 87 bd 7d f5 13 3d 1e 47 a2 bc
       0.021288365 -0.06639896 0.036122788 -0.019809302
000230 ad 08 38 bd b4 da ac bc 5e 6a 49 bd 71 b0 18 bd
       -0.04493015 -0.02110038 -0.049173705 -0.037277643
000240 11 6c 8a 3c 84 20 22 3c 8a 8d a8 3c a7 b4 9e 3c
       0.016897233 0.009895448 0.020575304 0.019373251
000250 2c 85 81 bd 35 9c 82 bd 72 ec 89 bd dc 48 4a bd
       -0.06324229 -0.063774504 -0.067345515 -0.04938589
000260 37 12 b9 bd 8b 7f 17 bd cb 00 aa bd bc 5c 4c ba
       -0.09036677 -0.03698687 -0.083009325 -0.0007795801
000270 68 ca 06 be da fa 9c bd c4 5f 90 bc 50 84 61 3c
       -0.1316315 -0.07665034 -0.01762379 0.013764456
000280 ff 38 fa bd d7 ca f2 bc d8 97 70 bd a2 71 07 bc
       -0.122179024 -0.029637737 -0.05873856 -0.008266838
000290 48 7e 82 3c de d1 0c bd 54 bd 82 bc 89 e4 85 3c
       0.015929356 -0.034379832 -0.01595942 0.016344326
0002a0 6b 95 5d bd 9f 74 08 3d 72 02 97 bd 72 a5 80 bc
       -0.054097574 0.033314344 -0.07373513 -0.01570389
0002b0 cb 9f 7f bd 29 63 f1 3c 2b fb 28 bd d2 57 98 bc
       -0.06240825 0.029466229 -0.041255157 -0.018596563
0002c0 a8 9a 6f bc 5e 19 77 3c 41 57 0f 3b ec ae 92 bd
       -0.014624275 0.015081732 0.0021872076 -0.0716227
0002d0 0b 5d f2 bd 82 74 bc bc b2 26 94 bd a0 0a 2e bd
       -0.11834153 -0.023004774 -0.07233943 -0.0424906
0002e0 ed 03 b0 bd 7a 09 b6 bd 90 f4 9c 3d d2 12 ca 3b
       -0.08594499 -0.08888526 0.07663834 0.0061667943
0002f0 d4 97 28 bd 67 47 49 bd 96 c6 4d bd a3 d7 d9 bd
       -0.04116042 -0.04914036 -0.050238214 -0.106368326
000300 30 c4 2d bd 9e be 47 3d 7c 41 71 bd c5 d2 6d bd
       -0.042423427 0.04876577 -0.05890034 -0.058062334
000310 5f 56 ee bd 06 8f 15 3d 41 b7 99 bd dd 88 b4 bd
       -0.11637568 0.03651335 -0.07505656 -0.08815167
000320 7d 47 2e bd 4c fe 1c bd 14 0b 33 bd 05 6d 41 3d
       -0.042548645 -0.038328454 -0.043711737 0.04722311
000330 c6 be f2 bd 1c 13 81 bd 5e 8a 67 bc a3 77 db bd
       -0.118527934 -0.06302473 -0.01413211 -0.10716178
000340 e2 15 c3 bd 0c b1 73 bd 45 cf 49 bb fc db 09 bd
       -0.09525658 -0.059495017 -0.0030793708 -0.03365706
000350 cc d4 cb bd fd 64 cc bd d5 42 07 3d f1 ce 22 bc
       -0.09952697 -0.099801995 0.03302272 -0.009937034
000360 15 48 fd bd 2e 4a 45 bd 8a 23 d3 bd 48 92 02 be
       -0.12367264 -0.048166446 -0.10309513 -0.12751114
000370 dc 6e ab bd 39 84 29 3d b9 6d 89 bd 89 c4 d4 3c
       -0.08370754 0.041385863 -0.06710381 0.025972622
000380 ec 28 53 bc 72 21 d9 3b d8 14 b3 3c 74 18 4d bd
       -0.0128881745 0.0066263014 0.021860525 -0.05007215
000390 cc 66 cd bd 4a 9f 08 3d 99 f2 f4 bc e7 b1 f5 bd
       -0.100293726 0.033355035 -0.029900836 -0.11996823
0003a0 6b 1a 03 3d 90 89 98 bd 91 0f 0f bd 16 da ad bd
       0.032007616 -0.07448113 -0.034926955 -0.08488862
0003b0 1b 3a 37 3d a9 b8 4b bc 87 ad 08 be 74 9f 01 3d
       0.044733148 -0.012434163 -0.13347445 0.031646207
0003c0 76 db 43 bd b3 6a bf 3c fa 18 05 3d 3e 09 dd bd
       -0.047816716 0.023366308 0.032494523 -0.107927784
0003d0 eb 71 8e bc 6f 05 c7 3c c1 e5 32 3c 20 d2 22 3d
       -0.017388305 0.024294583 0.010919035 0.039751172
0003e0 c5 a6 89 bc b6 ba 05 3d 64 3f 4e ba 99 b5 8d bd
       -0.016803155 0.032648765 -0.00078677223 -0.06919403
0003f0 80 2a 5e bd 56 4a b7 3b b7 c5 4a 3c 68 d6 ab bb
       -0.05423975 0.0055935783 0.01237624 -0.005244065

hidden_layer.bias f4 [256]
000000 fa a7 e2 3d 0e 28 ef 3c b1 2b b8 3d 57 21 37 3d
       0.11067195 0.029193904 0.089927085 0.04470953
000010 3c 0c 22 3c a3 3a 3a bd a6 09 01 3d 6f 72 cd bc
       0.009890612 -0.045466077 0.031503342 -0.02507898
000020 1e 6e 8e bc 8d 1c 98 3d 04 d5 a0 3d b5 10 b9 3d
       -0.017386492 0.07427321 0.078531295 0.0903639
000030 f7 dc c6 3d 81 40 13 bd 6a 17 b9 3c c7 b2 6c bd
       0.097101144 -0.035950188 0.022594173 -0.057787683
000040 9e 1d c5 bd cc bd a7 3d df e5 4d bd 4b 07 61 3d
       -0.0962479 0.08190498 -0.05026805 0.054938596
000050 32 39 c5 bd 29 fa 91 3d fe e6 32 bd 1b 3f 61 bd
       -0.0963005 0.071277924 -0.043677323 -0.054991823
000060 67 8a b9 bd 94 40 a1 3d 53 b6 c5 3b 51 8c 2d 3c
       -0.09059601 0.078736454 0.0060336976 0.010592536
000070 4b 20 98 bd 2c 03 0f 3c 46 58 8c ba 5f 94 6b bd
       -0.074280344 0.008728784 -0.001070746 -0.057514545
000080 df e8 05 3e d4 ad cc bd 0c 6a 7f 3e fd cc d5 bd
       0.13077115 -0.099940926 0.24942797 -0.10439489
000090 fc 00 a2 3d 26 7e 85 3d fa b9 be bc 1a a3 ff bd
       0.07910344 0.065182015 -0.02328204 -0.12482281
0000a0 62 d6 07 3e 15 f3 e9 bc 88 38 eb bd 6e 8c f7 bc
       0.13265374 -0.028558293 -0.11485392 -0.03021833
0000b0 f7 26 05 3c d0 6a d4 3d 11 bc 25 3e 49 16 bf bd
       0.008126966 0.10371935 0.16185023 -0.093304224
0000c0 b5 92 ec bc 77 20 0c 3d 79 5c ab 3d e6 a4 f7 bd
       -0.02887855 0.03421065 0.08367247 -0.12091999
0000d0 55 28 e6 3d 8a 90 d0 3c a0 bf 02 3e a4 d9 91 3b
       0.112381615 0.025459547 0.12768412 0.0044509936
0000e0 cf 80 c2 3d fa 9a a3 bc cf 73 ef bd 28 21 88 3c
       0.094972245 -0.01997136 -0.116920106 0.016617373
0000f0 a7 3d be 3b 3f df ae bd 3f ae cc 3d 99 bd 84 3d
       0.0058056894 -0.085386746 0.09994172 0.064814754
000100 85 46 b3 3b 1b e4 7e bd 42 56 0b 3d be 9e 04 3c
       0.005471053 -0.062229257 0.03401781 0.008094488
000110 36 1d 35 3d d3 6b 11 bd 90 b9 df bd 78 55 3d 3c
       0.04421731 -0.03550322 -0.10924065 0.011556022
000120 9d 3c ec 3d 34 ee 1e bd 47 24 82 3d bf e4 6e 3d
       0.115349986 -0.038801387 0.063545756 0.058323618
000130 a6 c4 e2 3d 64 a5 ec bc 69 cf 49 bc 31 ba a5 3d
       0.11072664 -0.028887458 -0.012317517 0.08092154
000140 2a ac e9 3c 1e 6a e8 bd f5 ef 43 3d 4d d2 00 bd
       0.028524477 -0.11348365 0.047836263 -0.03145056
000150 59 be f1 bd b3 f5 5b bc 8a 8e 13 3e ae b7 6f 3d
       -0.11803884 -0.0134252785 0.14409843 0.05852478
000160 e9 01 d3 bd 01 9d 82 bd c2 70 00 bd 27 9e 5b bd
       -0.10303099 -0.06377602 -0.031357534 -0.053617623
000170 15 67 fa bc e0 56 10 3b b5 13 dc bd ce c1 92 bc
       -0.030566731 0.0022024438 -0.10745946 -0.017914679
000180 cc a5 13 bd 18 2a 49 3d cc 66 56 3d 5a 97 b8 bb
       -0.036046788 0.04911241 0.05234413 -0.005633277
000190 f1 c3 ea 3d e6 71 b2 3d e6 bb c1 3c 0b 70 c7 3d
       0.11463154 0.08713131 0.023649167 0.097381674
0001a0 a3 33 a0 3c 2e 80 ab 3d 47 19 dd bd 6c 08 45 3d
       0.019555872 0.08374058 -0.10795837 0.048103735
0001b0 f1 92 85 bc 95 60 e4 bd 78 fa 94 bd 5f ae 02 3e
       -0.016305419 -0.11151234 -0.072743356 0.1276183
0001c0 70 fd 2f 3d 9c 17 a6 3c 8a 8d da 3c 7f 79 e4 3c
       0.042966306 0.02027493 0.02667882 0.027889965
0001d0 16 0b eb bb c9 16 ef 3c 81 60 06 bd e1 ff 23 3d
       -0.0071729524 0.02918567 -0.032806877 0.040038947
0001e0 b0 6d 4a bd 87 40 ee bb b6 3b f0 bb 30 d0 c9 3d
       -0.049421012 -0.007270876 -0.007331337 0.09854162
0001f0 0d 26 89 3d 63 49 0b 3c 63 20 dd 3c ce 9d 87 3c
       0.06696711 0.0085013835 0.026992982 0.01655474
000200 53 df 21 3c 9f a8 c8 bd e9 be 9a bd 13 fa d3 bd
       0.009879905 -0.09797787 -0.075559445 -0.10350432
000210 f7 85 99 bc f4 f8 d8 bd ca f4 57 3b d1 73 fc bd
       -0.018740637 -0.10594359 0.0032952302 -0.12326778
000220 2f 28 7e bd 50 ac 20 3d 82 48 15 3a 6d 49 7b 3d
       -0.06205004 0.03922683 0.00056947034 0.06134932
000230 6b d6 88 3a b0 33 d4 bb 9b 02 ce 3c 32 3e 0e 3e
       0.0010439878 -0.006475888 0.025147727 0.13890913
000240 f5 c3 24 3d cb f3 ac 3d 11 be 2e 3c c6 c1 f5 3c
       0.04022594 0.08444937 0.010665433 0.029999625
000250 3c d1 01 bb 04 00 a0 3c c7 e1 12 3b 02 81 b3 3d
       -0.0019808551 0.019531257 0.0022412406 0.08764841
000260 93 2e 24 bc bf 9b 3d bd 7f 7a d2 3d c1 8a 59 3d
       -0.01002087 -0.04629111 0.102772705 0.05311084
000270 4a fa 51 bc b9 bf 98 bd af 99 f1 bd 64 72 e8 bc
       -0.012816021 -0.07458443 -0.11796891 -0.028374858
000280 71 b3 1c bc d3 61 9e 3c 99 93 6d bd 05 69 e8 3d
       -0.009564267 0.019333756 -0.05800209 0.11348156
000290 81 1d 46 be 9d 50 f2 3c cd 32 c8 bc 54 3b fb 3d
       -0.19347192 0.029579455 -0.024438286 0.12267175
0002a0 26 c1 e7 bb d5 df 81 bc a4 58 03 be fa 47 f8 bd
       -0.0070725856 -0.015853802 -0.12826782 -0.121231034
0002b0 88 ce 06 3e e2 44 6e 3d 84 d3 9f 3d 92 56 af bd
       0.13164723 0.05817116 0.07804015 -0.08561434
0002c0 34 52 17 3c ad 24 86 bd f9 37 29 bd ef 12 1d 3d
       0.009235907 -0.06549964 -0.041313145 0.038348135
0002d0 aa 0e 8f bd da a5 3e 3d ce 39 e1 3d 52 6d 4a 3d
       -0.06985219 0.046544887 0.109973535 0.049420662
0002e0 de 4e 00 bb ca 32 cf 3c 27 a5 40 bd 08 e4 9f 3d
       -0.0019578259 0.025292773 -0.0470325 0.078071654
0002f0 fb fe 55 bc 07 28 8f bd 42 8b 24 3d 48 73 fd bd
       -0.01306128 -0.069900565 0.04017187 -0.12375504
000300 91 af f0 bd c3 36 a6 3d 25 ef 96 3c 59 1e c5 bd
       -0.11752237 0.08115914 0.01842458 -0.09624929
000310 8e 38 11 3d 0d 25 aa bd e4 db 92 3c 1d 5c ff 3d
       0.035454325 -0.08307848 0.017927118 0.12468741
000320 1f 90 80 bd a9 c4 37 be bc 6a 75 3d 52 b2 15 bc
       -0.06277489 -0.17946114 0.059916243 -0.009136753
000330 0f ee 94 3d d6 b7 d3 3d 41 e8 bb bd 60 a8 ed bd
       0.072719686 0.10337798 -0.09175158 -0.116043806
000340 21 1a 81 3d e1 50 9d bd b2 7b 0d 3d 4f 7e 9c ba
       0.06303812 -0.07681442 0.034541793 -0.0011939498
000350 71 4f 39 3d 6a 1e 0f bd dc 37 fa bd 44 4b 9e bd
       0.045241777 -0.034941114 -0.122176856 -0.077291995
000360 d2 70 b3 3d 7c 1c b7 3d 4a d5 74 3d db b4 71 bd
       0.08761753 0.0894098 0.05977372 -0.059010368
000370 df 58 f8 3c 1a a0 20 bd 8a d0 03 be 97 cf dc bd
       0.030315815 -0.039215185 -0.1287252 -0.10781782
000380 d0 e1 55 bd 40 a8 b0 3d ea f7 87 3c 06 5a e4 3d
       -0.052217305 0.08625841 0.016597707 0.11149983
000390 f8 00 1e 3d 8f cd 1d bc d6 ef 19 3e e9 a7 b4 3b
       0.038575143 -0.0096315285 0.15032896 0.0055131805
0003a0 98 b4 39 3d f1 99 97 bc f6 f8 c8 3d a4 36 38 3d
       0.045338243 -0.018506022 0.098131105 0.044973984
0003b0 c9 3f bc 3d 58 9a 86 bd 14 b2 c6 3d 43 97 fb bc
       0.091918536 -0.065724075 0.097019345 -0.030711776
0003c0 14 c1 e6 3d 3b d2 8c 3d c5 ab b7 3d 14 c3 7b 3c
       0.112672955 0.06876036 0.08968309 0.0153663345
0003d0 5e a6 3d bc b2 dd e5 3d 00 c1 cc 3d cd 25 c8 3d
       -0.01157531 0.11223926 0.09997749 0.09772835
0003e0 d6 8d f0 bc 27 58 b8 3c a2 38 72 bb ab ef 5b 3d
       -0.029364508 0.022502972 -0.0036960025 0.053695362
0003f0 85 6e 21 bd 38 6d 66 bd 04 f3 7e 3d 21 2a 91 3d
       -0.03941204 -0.056256503 0.062243477 0.070881136

output_layer.weight f4 [1, 256]
000000 1e 03 29 be d6 77 d6 bc a5 24 04 be 91 f7 16 be
       -0.16505095 -0.02618019 -0.12904604 -0.14742877
000010 b7 fe 27 be c0 e3 87 ba 05 94 a6 bd e8 91 02 be
       -0.1640576 -0.0010367557 -0.08133701 -0.12750971
000020 e5 9d e7 bd 90 f8 2c be 50 60 24 be b9 d5 1f be
       -0.11309413 -0.16891694 -0.16052365 -0.15608872
000030 19 02 99 bd d2 e0 3a bc e5 1a ed bd e9 1d cd bc
       -0.07471103 -0.01140614 -0.11577395 -0.025038676
000040 a3 de 54 3c 65 5f ee bd c9 08 66 bc 3c ce ed bd
       0.012992534 -0.11639289 -0.0140401805 -0.11611602
000050 56 0e af bb 82 d6 20 be 97 19 ac bd 60 84 f1 3c
       -0.005342285 -0.15706828 -0.084033184 0.029482067
000060 52 61 ff bb 8c ad cd bd 92 c9 de bd 4a 65 76 3c
       -0.007793584 -0.10042867 -0.1087829 0.015038798
000070 9e 6e 57 3d 3a 7f 2a be c6 00 2a 3b 89 34 06 3d
       0.052595727 -0.16650096 0.0025940402 0.032764945
000080 06 9f 1d be c2 bb a4 bc 11 f1 bc be d7 3b c2 bc
       -0.15392694 -0.020109061 -0.3690267 -0.023710174
000090 51 88 08 be 8a 2b 36 be 2a 6a 5a 3c a4 c7 bb ba
       -0.1333325 -0.17790046 0.013330976 -0.0014326465
0000a0 1d 43 1b be 98 b4 22 bc 32 30 b7 bc b6 bf 07 be
       -0.1516232 -0.009930752 -0.022361849 -0.13256726
0000b0 f1 b8 b1 ba 56 17 ab bd b3 29 fa bd 73 96 58 3a
       -0.0013559145 -0.0835406 -0.12214985 0.0008262165
0000c0 99 32 b6 3b 0c cd 41 3c ad 9f e0 bd 4b 0f 35 bb
       0.005560231 0.011828672 -0.10967956 -0.0027627524
0000d0 7f 97 03 be 66 c0 dc bd 4d 9b 1c be f6 e1 8b 3c
       -0.1285076 -0.107788846 -0.15293618 0.01707552
0000e0 3f 50 0c be 54 31 11 be c1 8d 3b 3c 24 88 5c bc
       -0.13702486 -0.14178973 0.011447371 -0.013460193
0000f0 81 9f 07 bd d3 ce cb bc 81 9e 2b be 89 8d 16 be
       -0.0331111 -0.024878895 -0.16759683 -0.14702429
000100 df 43 e6 bd c8 2b f4 bc bc 66 c6 3c 66 0f 25 be
       -0.11243414 -0.029806033 0.02421891 -0.16119155
000110 5d 85 25 be 8d 94 a5 3c 88 db 8a bc 26 af 19 be
       -0.16164155 0.020212436 -0.016950384 -0.1500822
000120 46 d2 13 be 42 77 56 bc 10 ad 35 be a6 20 58 bb
       -0.14435682 -0.013089957 -0.177418 -0.0032978444
000130 da ea be bd ca 2f 26 be cd c8 32 be 46 57 0c be
       -0.09322138 -0.16229168 -0.17459412 -0.13705167
000140 32 82 2b 3b 37 24 d8 3c f1 8f 1f be 59 69 27 be
       0.0026170132 0.026384456 -0.15582253 -0.1634878
000150 a5 6a ac 3a 3c ee 2f be 36 03 08 be b4 0f f5 bd
       0.0013154341 -0.17180723 -0.13282475 -0.11965886
000160 b9 59 74 bc 06 5d 14 3d 7d d1 e1 bc ad a7 7c 3c
       -0.01491397 0.036221527 -0.027565712 0.015420836
000170 05 61 72 3c ad 25 33 3a 01 97 3b 3a 3a e8 b1 bb
       0.014793639 0.0006833922 0.0007155985 -0.005429295
000180 0e 51 6a bb 46 e5 09 be 47 e4 15 be 2f 8c da bb
       -0.0035753879 -0.13466367 -0.14637862 -0.006669543
000190 43 48 05 be e6 fb 29 be 4b 99 1e be 54 93 2a be
       -0.13015847 -0.16599998 -0.15488164 -0.16657764
0001a0 82 fb 95 bc ec ea 06 bc 29 70 b0 3b be 73 37 be
       -0.018308405 -0.008234721 0.0053844643 -0.17915246
0001b0 67 03 02 3c d3 52 ac 3a 97 4e a7 3c f8 7f 38 be
       0.0079353815 0.0013147242 0.020423217 -0.18017566
0001c0 83 6d 69 bc 21 f6 14 be 24 eb 2c be 6f fa 90 bc
       -0.014247301 -0.14547016 -0.16886574 -0.017697541
0001d0 00 87 e5 3c 4e ca eb 3c 0c 1d 83 bc 90 ae 29 be
       0.028018475 0.02878299 -0.016005062 -0.16570497
0001e0 93 3f e5 bc 07 e5 cd 3b 25 b0 0c bd dc e3 05 be
       -0.027984416 0.0062834057 -0.034347672 -0.13075203
0001f0 db c8 3a be 74 c7 70 3c b7 4e d1 bb 1b 87 27 be
       -0.18240683 0.014695991 -0.0063875574 -0.16360132
000200 01 41 2d be a9 28 92 3c b4 f7 8e 3c 43 ea b7 bc
       -0.16919328 0.017841654 0.017452098 -0.022450572
000210 52 fe 36 be c8 83 11 bc 20 46 b2 bb 6f 97 64 bc
       -0.17870453 -0.008881517 -0.0054404885 -0.01395212
000220 ce bb 9e 3c 6f 49 9d ba 63 b9 2f be 99 ce df bd
       0.019376662 -0.0012000034 -0.17160563 -0.10928077
000230 9d 92 1d be 35 b3 35 be 13 16 ab bc 3e ef 07 be
       -0.1538796 -0.17744143 -0.02088455 -0.13274857
000240 c2 f2 39 be 22 4e 24 be 19 98 00 3d d7 6b 0a be
       -0.18159011 -0.1604543 0.03139505 -0.135177
000250 0f 53 29 be ca 1a 14 be 08 25 73 3c 9b d1 3a be
       -0.1653559 -0.14463344 0.014840372 -0.1824402
000260 97 62 58 bc 04 e8 ac 3c a4 01 14 be 6f c0 2d be
       -0.013207099 0.021106727 -0.14453751 -0.16967939
000270 cc 95 cb 3c 2c 2c 94 3d 7f ad bc bc 04 3a aa 3c
       0.024851702 0.072349876 -0.023031948 0.020779617
000280 5b 42 19 be 35 2a 21 be bb df 18 be 56 57 29 be
       -0.14966719 -0.15738757 -0.14929096 -0.16537222
000290 f1 f9 fb bd 2a d7 33 be 21 0d bf bb 8f c3 2a be
       -0.12303532 -0.17562547 -0.0058304225 -0.16676162
0002a0 49 0a 4c 3b 2f 2c ce bc de 3f 9c 3a 82 19 db bc
       0.003113406 -0.025167553 0.0011920889 -0.026745562
0002b0 3d ce 04 be 6c c9 22 be b8 76 61 bd 07 ba 66 3c
       -0.12969299 -0.15897149 -0.05504486 0.014082438
0002c0 e1 df 1e be e0 0d 27 3c 58 e8 eb ba 8e e8 83 bc
       -0.1551509 0.010196179 -0.0017998321 -0.016102102
0002d0 13 66 e9 3c 53 24 b8 3b ef bf 33 be f9 f2 09 be
       0.028491056 0.0056195646 -0.17553686 -0.13471593
0002e0 f0 83 4d bb 3b a3 11 be 83 99 91 3a e0 99 e6 bd
       -0.0031359158 -0.14222424 0.0011108372 -0.11259818
0002f0 e0 91 eb bd b0 00 d1 bb 71 7f 34 be ef 85 27 bc
       -0.11502433 -0.006378256 -0.1762674 -0.010224803
000300 a8 db ab 3d 34 07 33 be f4 32 04 37 ca ba cb bc
       0.083915055 -0.17483217 7.879677e-06 -0.024869341
000310 16 d0 03 be e1 29 08 3e 45 22 21 be 81 b8 d9 bd
       -0.12872347 0.13297226 -0.15735729 -0.106308945
000320 d7 67 93 3c 94 32 bd 3d 52 3e 18 be 34 21 fc bd
       0.01799385 0.09238163 -0.14867523 -0.123110205
000330 9e d3 5b bd 27 52 39 be a6 ab b9 3b fa 18 6e 3b
       -0.05366861 -0.18097745 0.005666214 0.0036330805
000340 d2 a4 77 bd 97 87 0b bc 9c 0a 2b be 6c ed e5 3a
       -0.06045992 -0.008516214 -0.16703266 0.0017542071
000350 e0 19 96 3c 29 77 c8 bd 3e 16 1f bd 80 dd 94 bb
       0.018322885 -0.09788353 -0.03883957 -0.0045430064
000360 77 c3 36 be 43 f6 ed bd 35 47 05 be b3 e7 28 3c
       -0.17848001 -0.11619236 -0.13015445 0.010309148
000370 ca 75 e3 3c 58 60 26 be 87 8a 96 bb 67 68 9e 3c
       0.027766127 -0.1624769 -0.0045941505 0.019336892
000380 7f a3 c1 3a bd 14 ed bd b5 42 14 bd 08 90 0c be
       0.0014773457 -0.11576221 -0.03619643 -0.13726819
000390 3b 19 1f 3c b8 4d 14 be 3e 13 1a be 08 85 10 be
       0.009710605 -0.14482772 -0.15046403 -0.14113247
0003a0 24 46 a1 3c 30 71 3a bc 25 8d e5 bd aa 69 21 be
       0.019686766 -0.011379525 -0.11208562 -0.15762964
0003b0 63 df 47 be 72 0c 6e 3c 41 63 3b bc 36 57 84 3c
       -0.19518809 0.014529334 -0.011437238 0.016154867
0003c0 e5 16 1a be a5 5e f7 bd 01 1a 1b be 0e d2 f5 bd
       -0.15047796 -0.12078599 -0.15146638 -0.120029554
0003d0 5b ca 09 be db 5f 18 be a1 3a 1c be c3 a4 1f be
       -0.13456099 -0.14880316 -0.1525674 -0.15590195
0003e0 7e c4 ed 3c 68 60 5b bc 8e 13 28 be 4b 8b e3 bd
       0.029024359 -0.013389684 -0.1641371 -0.111105524
0003f0 84 5f 74 bc 0f 1a 92 bb 28 76 1b be 9e 95 ee bd
       -0.014915351 -0.004458673 -0.15181792 -0.11649631
