executions/actor_critic_lunar_lander_20251026_023422/Quantum_Actor_Model.pt (torch, 2373 bytes, 2 tensors)

quantum_policy_head.x_weights f4 [5, 8]
0	0x3f43cdc3	0.7648584
1	0x4006b58f	2.1048315
2	0x40bf3aca	5.9759264
3	0x40b6d867	5.7139163
4	0x409b9cd3	4.8628936
5	0x3ec29bd4	0.38009512
6	0x401783ce	2.3674197
7	0x3dc70e0d	0.09719477
8	0x402041c7	2.5040147
9	0x408a6bab	4.325643
10	0x40a5ad41	5.177399
11	0x3dc5e583	0.096629165
12	0x4029e1eb	2.654414
13	0x3fbb36f1	1.4626142
14	0x407b9a06	3.9312758
15	0x3fd113c7	1.633416
16	0x40c5e965	6.1847405
17	0x404347d7	3.0512598
18	0x3e0a46e7	0.1350361
19	0x400b8a41	2.1803133
20	0x4086fd25	4.2184014
21	0x4052a2e6	3.2911925
22	0x403eb3e7	2.9797304
23	0x40ab581a	5.3545046
24	0x40ac765f	5.3894496
25	0x40978f03	4.7362075
26	0x3fb6164b	1.4225553
27	0x40627bc2	3.5388036
28	0x4065e253	3.5919387
29	0x40c86acb	6.2630363
30	0x40856f1c	4.169813
31	0x40ac66b9	5.3875394
32	0x40be342a	5.9438677
33	0x40ae5771	5.448174
34	0x408ef88d	4.4678407
35	0x40af3ccf	5.476173
36	0x4098ce99	4.7752194
37	0x40084f4a	2.1298394
38	0x4064d167	3.575281
39	0x408c3f94	4.382761

quantum_policy_head.z_weights f4 [5, 8]
0	0x40098523	2.148751
1	0x4034b419	2.8234923
2	0x40b102d0	5.5315933
3	0x3f985eeb	1.1903967
4	0x3f627969	0.8846651
5	0x3ff73b00	1.931488
6	0x40ab0fef	5.345695
7	0x4010f728	2.2650852
8	0x3ff302da	1.8985245
9	0x409aec99	4.8413815
10	0x4030a2ae	2.7599292
11	0x401753f1	2.3644984
12	0x403070a9	2.7568762
13	0x407e3d28	3.9724827
14	0x40cad24f	6.3381724
15	0x3ffcb20f	1.9741839
16	0x40addf14	5.433481
17	0x40868779	4.204037
18	0x4090363d	4.506621
19	0x4081b96b	4.053884
20	0x40781302	3.8761601
21	0x40bd6391	5.918404
22	0x3f865762	1.0495417
23	0x3f9f4d32	1.2445433
24	0x3fc5a6d3	1.5441536
25	0x3f9794b8	1.184226
26	0x402a199b	2.6578128
27	0x40a0b4de	5.0220785
28	0x404a6bd6	3.1628318
29	0x40945d11	4.6363606
30	0x3f4b8532	0.79500115
31	0x40c20d83	6.0641494
32	0x406aa886	3.6665359
33	0x407da5bf	3.9632413
34	0x3f88b1f2	1.0679305
35	0x408fcf2c	4.4940395
36	0x3fde6c47	1.7376794
37	0x408d0df5	4.4079537
38	0x40b1088a	5.5322924
39	0x4073cc27	3.8093355
