executions/actor_critic_lunar_lander_20251026_020434/Quantum_Critic_Model.pt (torch, 140977 bytes, 5 tensors)

input_layer.weight f4 [128, 8]
00000000: ca45 d83c 1edd db3e f1bb 10be 8f9e 6fbe
00000010: 8db8 05be 3d40 b73e 208a edbd 8330 2bbe
00000020: 2118 95be cb37 1f3e 0c37 cabe 5133 0bbe
00000030: d704 3bbe ba3d 1abd 8ac1 113e 4929 90be
00000040: 0318 afbe d8fc 98be ad52 ab3d db1e 693c
00000050: b93b 013e d4b1 133f e971 e8be c828 66be
00000060: 50e1 863d cf77 a73e 4281 d1be f0c2 623e
00000070: 70fb 473d 0f02 e3bd fa35 a8be 9532 b73c
00000080: c0d2 083d 586e 00bf 7750 f03d ccab 8f3e
00000090: d0c2 23be 1b65 833a 2d7b 613e b72c 76be
000000a0: ca9f 723f f9e5 f33c cfae 2d3f 6974 0fbd
000000b0: 62b7 9ebe 6e86 d3be 2013 1e3d 0634 84be
000000c0: 89ca bf3d ed4f b7bc 8c3e ddbd 07f8 c9bd
000000d0: 64f4 00be 602d 1c3e 19b6 333e dda4 ca3d
000000e0: bf30 11bf d9d4 0ebe 4f18 dcbe a023 703e
000000f0: b873 a73e d534 de3e 2b25 a5be 44ab 86be
00000100: 9e04 a1be aefc ea3e 79c2 15be 1c4c f53d
00000110: 18e2 dc3d 0087 1c3e 1c06 eebe bd29 6abe
00000120: 6655 21be e96b 5dbe fcdf 7b3e 9ed4 713e
00000130: bff4 4c3e 8415 913e 4fcb 94be 54ae 6abd
00000140: 60a0 863e ac37 2c3e bc9b afbe 9b62 ccbd
00000150: 68e4 003e 4083 783e 87fb 9b3e f375 c63d
00000160: dbf5 81be 2da3 ae3e 0bae 3d3e b0e4 bbbe
00000170: 7d43 8e3e b05b 673e c06d 0ebe 8754 483e
00000180: e46c a3bd 4bf0 65be 446d c4be f219 d9be
00000190: ab9e 9b3e 9b01 2c3f 22ff 22be ae5b 653e
000001a0: 2ecd 95be 2ecd 1a3e 8612 e8be fa88 2dbe
000001b0: 251b a63e 8697 abbc 9e54 73bd e83b 823e
000001c0: dc5c b63e a5bd ccbd dde9 9ebc 05a2 693e
000001d0: 6ed1 973e ef2f b23e f859 473d b537 1dbf
000001e0: 39be 6dbe b72d d43d a24d a2be 48c0 6cbe
000001f0: 04bf 6b3e cf92 113f deb6 303e f0ef e03e
00000200: 06ac f43c c99a 373e 1bf9 893e 14d5 8abe
00000210: 1a08 88bd 5bc2 83be a082 123d 5e13 053f
00000220: 5293 cebc 3616 77be 79c5 e8be 1de8 00be
00000230: d454 0e3d 5ec1 863e d913 7dbe 4940 c4bd
00000240: 4002 90be efb4 6ebe 754b 06bf 9b82 753e
00000250: 7b08 9c3e df65 fa3e ce3d b4be d329 9dbe
00000260: 2b81 fdbd df4c c33e 511b 0b3e 34e5 ee3e
00000270: bfca 863e 438d ad3e 8a7f f3bd 9248 6abe
00000280: 37b2 3dbe d9ff a23c ad6b 3e3e 9c45 5abe
00000290: 44dd b73e 39d5 a43e f061 38be ef1f 95bd
000002a0: 0f54 0e3e 68ad 033f b966 853e 7d53 5abc
000002b0: eb7b c5bc 074f 81be 9be4 d6be 3bda 7bbe
000002c0: c94c 823e 2e71 ccbe d7f4 e7be b930 1ebe
000002d0: ed9b c2bd f34f 863e f1d4 65be 4fd7 a7be
000002e0: 4c0d 92be 27b8 bcbe e409 20bf f235 2abf
000002f0: 887a 023f 97f3 433f 7ccd 763e bbd2 f2bd
00000300: e631 50be 2ea5 d9be 6c24 7f3d 2048 143e
00000310: 0952 86be 8440 c03e 6c8a 6fbe 6f34 263e
00000320: a8bf adbd 76f7 243c a80a 903b d512 40bd
00000330: 02cb 0cbe 63e9 23be 7e47 46bf 3277 25bf
00000340: 5441 96be 004b c93e e2e9 74be b828 65be
00000350: 253d e0bd 2f6b 273e 8465 4aba 6a99 ff3c
00000360: a1c7 ca3e fdbb bebe 8c4f 46be 626e dcbc
00000370: 0a76 7bbe ceb9 233e 252f 273d 2638 353d
00000380: a591 3b3f 861a cf3c 5199 d53e cfca 74bd
00000390: b1a1 44be 9b2b d13e 94fb b83d 90e0 f2be
000003a0: c3d7 3bbf 98d2 b13e 4c08 02bf 807d 483e
000003b0: 20d5 44bc 2429 4b3e c5df 89bc 448b 0cbf
000003c0: 1171 28be 57e0 9a3e a3f2 edbe e1f5 6f3d
000003d0: dde3 e9bd 88fe 4e3d ac09 ae3e 15ce 39be
000003e0: b8ce 2dbf d351 c2be b9a4 1cbf dbbf 71be
000003f0: 3488 f73e 4496 0f3f 07df a4be ea9d ca3d
0.026400466 0.42942137 -0.14134194 -0.23400329 -0.13058682 0.35791197 -0.11598611 -0.16717725
-0.2911997 0.15548627 -0.39495122 -0.13593794 -0.18263565 -0.037656523 0.14233986 -0.28156498
-0.34198007 -0.29880404 0.083653785 0.014228548 0.12620439 0.5769322 -0.45399407 -0.22476494
0.06585944 0.32708594 -0.40918928 0.22144675 0.048823774 -0.11084377 -0.3285368 0.022362987
0.03340411 -0.5016837 0.117340975 0.28060758 -0.15992284 0.0010024639 0.22019644 -0.24040495
0.9477507 0.029772745 0.6784486 -0.035023127 -0.30999285 -0.413135 0.038592458 -0.2582094
0.093648024 -0.022376979 -0.108029455 -0.098617606 -0.12593228 0.15251684 0.17549933 0.098947264
-0.56715006 -0.13948382 -0.42987296 0.2345109 0.32705474 0.43399683 -0.3225492 -0.2630254
-0.31448835 0.45895904 -0.14624967 0.11977407 0.107853115 0.15285873 -0.46489036 -0.22867484
-0.15755233 -0.21623196 0.24597162 0.23616263 0.20015238 0.28336728 -0.29061362 -0.05729516
0.2629423 0.16818112 -0.34298503 -0.09979745 0.1258713 0.24268818 0.30465338 0.09690466
-0.25382885 0.34108868 0.18523423 -0.36697912 0.27785864 0.2259357 -0.13909054 0.19563495
-0.079797536 -0.22454946 -0.38364613 -0.42402607 0.30394492 0.6718995 -0.15917638 0.22398254
-0.29258102 0.15117332 -0.45326632 -0.16946784 0.32442585 -0.020946275 -0.05940687 0.2543633
0.3561772 -0.09997109 -0.019398624 0.22815712 0.2965197 0.34802195 0.048669785 -0.6141313
-0.23217095 0.10360282 -0.31699854 -0.23120224 0.23022085 0.5686464 0.17257258 0.43933058
0.029867183 0.1793014 0.26947865 -0.2711569 -0.0664217 -0.2573422 0.035769105 0.51982677
-0.025216732 -0.24129567 -0.4546316 -0.12588544 0.034748867 0.26319402 -0.24714603 -0.09582574
-0.28126717 -0.23311208 -0.5245889 0.23975603 0.3047522 0.48905846 -0.35203403 -0.30695972
-0.123781525 0.38144585 0.13584639 0.46659243 0.26326558 0.33896837 -0.118895605 -0.22879246
-0.18525015 0.019897388 0.18595763 -0.21315616 0.35911 0.32193926 -0.1800611 -0.072814815
0.13899253 0.5143647 0.26054934 -0.013325569 -0.02410694 -0.25255606 -0.41971287 -0.24594967
0.25449207 -0.399301 -0.45303985 -0.15448274 -0.09502397 0.2623287 -0.22444512 -0.32781455
-0.2852577 -0.36859247 -0.6251509 -0.66488564 0.5096822 0.76543564 0.24101824 -0.118566
-0.20331535 -0.42508835 0.062290594 0.14480639 -0.26234463 0.37549222 -0.23392648 0.1623094
-0.08483821 0.010068765 0.0043958016 -0.04689296 -0.13749316 -0.16006999 -0.7745284 -0.64635
-0.29346716 0.39315033 -0.23917344 -0.22378814 -0.109491624 0.16349481 -0.00077208155 0.031201083
0.3960543 -0.372528 -0.19366282 -0.026908103 -0.24556747 0.15988848 0.040816445 0.044243
0.7326911 0.025281202 0.41718534 -0.059763726 -0.19202305 0.4085358 0.0903236 -0.47436953
-0.733761 0.34730983 -0.5079391 0.19579124 -0.012013704 0.19839913 -0.016830334 -0.549
-0.16449381 0.30249283 -0.4647418 0.058584098 -0.114204146 0.05053571 0.33991754 -0.1814502
-0.6789355 -0.37953052 -0.61188847 -0.23608343 0.48346102 0.5608866 -0.32201406 0.09893401

input_layer.bias f4 [128]
00000000: e283 903e 7653 833d 2df8 cf3e 117f c63e
00000010: 1918 c3be dafc c8bd 166b 953e 6447 413e
00000020: 775d 1abe f9ef 90be ddd8 c33e 6e3c 053e
00000030: ccd2 763c c2d0 bebd c8cd bf3e 12c2 58be
00000040: fd37 9d3e 064e 593e 3017 ae3e 4271 933c
00000050: 59b1 9f3e ae5e 6fbe 34df 653e 2385 b73d
00000060: b66c c0be 2a99 b33e 5670 0abe 1532 93be
00000070: 3f00 8bbd 6a0a 99be fec3 3d3e 75cf 833e
00000080: b9e6 c33e 8d2c be3e 5fd0 debd f737 dd3e
00000090: c340 60be 79cb cfbe 0b7c f73e d6a5 e43d
000000a0: b5d4 313c ae72 733d 076b dd3c 8269 9d3d
000000b0: 066c 173d 957d 903e dafa 9d3d 982e 82be
000000c0: 255f c3be e9c0 53bd 69ee 833e af48 1f3e
000000d0: 893b e33d 6e0d 56bd 520b 0a3d c4a3 8ebe
000000e0: a0e7 10bc 8494 19be 83b2 c03e 948b 0c3e
000000f0: ca1a 793e 0a39 b03e 6ae9 ac3e 78e4 dd3e
00000100: 48d9 1d3e 3dd1 a1be 0699 2fbe c042 973d
00000110: 4f06 ddbe 7ce4 d9bc b5d8 a73e a9d3 513e
00000120: 6317 1f3e c5af 973d f57f 8e3e 3686 cf3e
00000130: 3cd6 b93e 1177 c03d 124a 47bc 171b a4bc
00000140: 9241 e83d 5b45 ebbd 3844 11bf 52cb 8fbe
00000150: 252c af3c bafb 0c3e f7f4 483e 899f 523c
00000160: f432 86be b5c7 783e 10be 8b3e a573 433c
00000170: 1b7b c7bd f69e e23d 010f ed3e 494e 8d3e
00000180: ccf7 733d 0f69 823d db0e ab3e 3340 94be
00000190: 7f33 9ebe 1018 fa39 3e91 d23d fdd4 58bc
000001a0: 2def 063f 4c88 4f3c 245f 393e c21b 853e
000001b0: 12db 9ebb 377b 013e 6118 65bb bed2 8ebe
000001c0: 03f2 9a3d 546e b83e e17d 3bbe 7f73 0c3f
000001d0: c154 cabc 26fb 063e c49a d8bd 76b1 093e
000001e0: 75db 123e 856c 99be 8e75 043e 02ad 1f3e
000001f0: ca07 dc3e 4076 1e3e 181f 2d3e 096b 3cbe
0.2822562 0.06412403 0.4061903 0.3876882 -0.38104323 -0.098138526 0.29183263 0.1887489
-0.15074717 -0.28308085 0.3825139 0.13011333 0.015064906 -0.09317161 0.37461686 -0.21167782
0.30706778 0.2122117 0.34002066 0.017998341 0.31189993 -0.23375961 0.22448426 0.08960941
-0.3758294 0.35077792 -0.13519415 -0.28749147 -0.06787156 -0.29890758 0.18531796 0.25744215
0.38261965 0.37143365 -0.108795874 0.4320676 -0.21899705 -0.40584925 0.48336825 0.11164443
0.010853936 0.05943554 0.027028574 0.0768614 0.036968254 0.2822081 0.07713862 -0.25426173
-0.38158527 -0.051697645 0.2576783 0.1555507 0.1109534 -0.0522589 0.033702202 -0.27859318
-0.008844286 -0.1499806 0.37636194 0.1372512 0.24326625 0.34418517 0.3377183 0.4333837
0.15414917 -0.3160495 -0.17148218 0.073857784 -0.43168876 -0.026598208 0.32782522 0.20490898
0.15536265 0.07406572 0.27831998 0.40532082 0.3629626 0.0939771 -0.012163656 -0.020032449
0.113406315 -0.11487838 -0.5674472 -0.2808481 0.021383354 0.13767901 0.19624697 0.012855419
-0.2621075 0.24294932 0.27293444 0.011929427 -0.097402774 0.11065476 0.4630051 0.2759879
0.05956249 0.063676946 0.3340977 -0.2895523 -0.30898663 0.00047701644 0.10281609 -0.013234374
0.52708703 0.012666773 0.181027 0.2599774 -0.0048478926 0.12644659 -0.0034957158 -0.2789516
0.07565691 0.36021674 -0.18309738 0.54863733 -0.024698617 0.13181743 -0.10576394 0.13446602
0.14341529 -0.29965606 0.12935469 0.15593341 0.42974693 0.15474796 0.16906393 -0.18400206

hidden_layer.weight f4 [256, 128]
00000000: 595f c53d 0bc9 673d 8070 ff3d 7d16 97bc
00000010: e0c1 0ebe 8850 c43e 2ae6 d73d f46a 603e
00000020: 8158 bb3d 2601 4d3c 2a16 3d3c 7166 413d
00000030: d5c6 193e 5242 d53d 7a3e c13d 37f3 413e
00000040: 8f7d dabd 28fc 2e3e 1af1 523e f4b4 013d
00000050: 00dd 333c 7e48 53be 7323 003e c598 613e
00000060: 9be1 acbe e7b2 10bd 496b 513d b91c b5bd
00000070: 88d8 0c3e 7bf4 0f3e a2d7 c83d 35da a23e
00000080: e56d c9bc 881a a5bc 9747 873e bb98 de3d
00000090: 33ff fc3d 0cff 39be 1643 213c bb2e bfbc
000000a0: fd9a f73e ca5b 17bd 981e eb3e 8729 39bd
000000b0: ce3c 323d 865b 033d 8ef1 113f 8d23 ea3e
000000c0: 0f03 60bd 875c d33d 3161 903d 938d c83c
000000d0: a540 3dbe 4a56 0fbd 5250 f33c cf3e 043e
000000e0: e7e1 da3d b59f 313e 11f1 403d 4bd4 01be
000000f0: 1df3 343e ed88 303e 5bd6 583e 4ed5 333c
00000100: 9315 8a3d 1c5c eabd 5d2d 093e def8 5f3d
00000110: 79a2 59bc a59f 173e 3e48 3f3e b912 d23d
00000120: 8ab8 533e fc37 d23e d977 2d3e 33e0 fc3c
00000130: 89c8 c63e 37d4 bc3e f793 0abd 7afa db3e
00000140: 85dd fd3d 3d75 10bd 94e9 1d3c 9b00 04be
00000150: 97fa e23e 411b c03d d035 1dbf 27ef 943e
00000160: 9cc5 1fbe ea42 0d3e 7586 673d 0367 1a3d
00000170: 6e09 f63e 9011 583e c88b 213e cf92 1e3c
00000180: 83fa 083e b9bc a53e 7c09 ee3d a836 65be
00000190: 2210 ed3d c1e5 8c3d ee6a d4bc f913 083d
000001a0: df7b e93d 6f5c 173f 941b 8d3b ecdd 6f3d
000001b0: 3dca 8f3c 222c 55bf 073c da3d 545c a9bd
000001c0: 770d b13d 951e 633c bb10 febc 9f09 343e
000001d0: 375a 663e 234b 333e f0de 88bc 290c f63c
000001e0: b386 d0bc f691 f0bd 70ff 093f 6608 d33b
000001f0: da6f 543d fc0a 4f3e 4542 bd3e becd b7bd
00000200: 48a3 3bbd 7bac 61bc d20a 3cbd d63f 5c3d
00000210: 084b a23c 9d18 2e3c b323 3ebc 8531 b03d
00000220: c29d dbbd a571 f0b9 80d5 6e3d f9c0 a8bd
00000230: bec3 a1bd b67e 14bd 5b21 2a3d 56b6 61bd
00000240: 27cc 88bd 1b68 963d 164d 61bd b218 2f3d
00000250: 4531 f13c 9748 61bd 900e 903d 8c48 613d
00000260: b2db 2bbd d659 2b3d effe f93c 8be7 b3bc
00000270: 4608 c5bd b76e 403d 9c0c bbbd 7426 303d
00000280: 56e5 9cbd 27f7 e63c dd56 a1bd 9060 b13c
00000290: 779e d5bd c2ce 923d a8a2 b8bc e403 d0bd
000002a0: 8ee2 cb3c 0e20 57bd 22bd ccbd b463 5bbd
000002b0: 2b73 61bd 6a9b 9dbd a424 c43c d610 57bc
000002c0: 72fd aabd 7262 a1bd 4cb8 c8bc 562b 83bd
000002d0: 820a bf3c cfba 563d 9f92 593d 611e 99bd
000002e0: e312 753c 373d 1dbd b77d 09bc 0aa4 243d
000002f0: 12a4 b6bd d62c 4d3b b03a 8a3d 9bd0 f0bc
00000300: 5fee 8fbc d678 053d f653 95bd f953 1ebb
00000310: fb04 70bc 1bfe f2bc fd0e fbbc d591 303d
00000320: 30ff 09bd 0c28 81bd b534 c93c 6e02 fabc
00000330: 9e72 13bd c26e 51bd a2cf 8cbd 234f a5bc
00000340: e368 99bb cc47 dfbd 9f2b 8f3c b6ab 583d
00000350: 458d 123d 24ba d4bd 300d ee3b 9d4c adbd
00000360: 52d0 3d3d 06f5 aebd e324 603d 764b 9cbd
00000370: 3dc4 e6bd 2148 1dbc 854c f4bc add6 95bc
00000380: 21b7 c7bd 093d 13bc 70a7 7d3b b007 0e3b
00000390: 540d 80bd b84e 1e3c 558b 4cbd ad15 a9bd
000003a0: ef36 75bd 7f3d 25bc 3212 fd3b caee dfbc
000003b0: 90a5 ff3c 6f15 593d 1f19 493d fd13 e5bc
000003c0: ccd2 d3bc be47 ce3b d87d f43c 0485 74bd
000003d0: 0e6e d23b a517 c3bd 1c9b cbbb e20c 71bc
000003e0: 3266 dcbd a1da 02bd 53f9 e33b 3c35 8fbd
000003f0: 674e eabd d723 9d3d 39fa 983b 2b4e 39bd
0.09637327 0.056588214 0.124726295 -0.01844334 -0.13941145 0.3834269 0.10541947 0.219158
0.0914774 0.012512481 0.011540929 0.047216836 0.15017255 0.1041304 0.094357446 0.18940435
-0.1066848 0.17088377 0.20599785 0.03166671 0.0109779835 -0.20633122 0.12513523 0.22030933
-0.33765873 -0.035326865 0.051127706 -0.08843369 0.13754475 0.14058106 0.09806754 0.31807104
-0.024588535 -0.020154253 0.26421806 0.10868975 0.12353363 -0.18163699 0.009842655 -0.023337713
0.48360434 -0.03695277 0.4592178 -0.04520562 0.04351502 0.032069705 0.5700921 0.45730248
-0.054690417 0.103203826 0.07049788 0.02448157 -0.18481691 -0.0349944 0.029701386 0.12914585
0.10687619 0.1734608 0.0471049 -0.1267864 0.17670865 0.17239733 0.2117552 0.010976149
0.06742396 -0.1144335 0.13396211 0.054680698 -0.013283365 0.14806993 0.18679902 0.10257477
0.20675865 0.41058338 0.1694025 0.030868625 0.3882487 0.36880657 -0.033832517 0.42964536
0.12395767 -0.035268057 0.009638209 -0.12890856 0.4433181 0.09380198 -0.61410236 0.2908871
-0.15602726 0.13795057 0.056524713 0.037695896 0.4805407 0.2110045 0.15775979 0.009678557
0.13376813 0.32370546 0.11622903 -0.22384131 0.11575343 0.068797596 -0.025929894 0.033222172
0.1140058 0.5912542 0.004306266 0.05856125 0.01755249 -0.83270466 0.106559806 -0.08269563
0.08645146 0.013862272 -0.031013837 0.17581795 0.22495352 0.17509131 -0.016707867 0.030035095
-0.025454855 -0.1174659 0.5390539 0.00644021 0.051864482 0.20219034 0.36964622 -0.08974789
-0.045810014 -0.013774033 -0.045908757 0.053771816 0.019811168 0.010625985 -0.011605191 0.08603195
-0.10723449 -0.0004586104 0.05830908 -0.082399316 -0.07898663 -0.036253653 0.041535717 -0.05510553
-0.06679564 0.07344075 -0.055005156 0.04274816 0.029442439 -0.055000868 0.070340276 0.055000827
-0.041957565 0.04183372 0.03051707 -0.021960994 -0.09620719 0.046980586 -0.091332644 0.04300542
-0.0766093 0.028194023 -0.07877896 0.02165249 -0.104306154 0.07168342 -0.022538498 -0.10156992
0.024888303 -0.052520804 -0.09997012 -0.05356188 -0.055041473 -0.076956585 0.023943253 -0.013126573
-0.08349122 -0.07880105 -0.024501942 -0.0640475 0.02332044 0.05242425 0.053118344 -0.074764974
0.014958116 -0.038388457 -0.008391789 0.040195502 -0.08918013 0.0031307242 0.06749475 -0.029396346
-0.017569719 0.03258594 -0.07291405 -0.0024158938 -0.014649625 -0.029662183 -0.030646795 0.043107826
-0.03369063 -0.063064665 0.024561265 -0.030518737 -0.03599798 -0.051131018 -0.0687554 -0.020179337
-0.004681693 -0.10902366 0.017476855 0.05289813 0.035779256 -0.10387066 0.0072647557 -0.084618784
0.046341248 -0.08542828 0.054722678 -0.076315805 -0.11267898 -0.009599716 -0.029821644 -0.018290842
-0.09751726 -0.00898672 0.0038704537 0.0021672063 -0.06252542 0.009662323 -0.049937565 -0.082560875
-0.059866842 -0.010085463 0.0077231163 -0.027335543 0.031206876 0.052998956 0.049096223 -0.027963633
-0.025857352 0.0062951734 0.029845163 -0.059697166 0.006421811 -0.09525994 -0.006213559 -0.014712544
-0.1076168 -0.031946782 0.006957212 -0.069925755 -0.11440735 0.076728515 0.0046685007 -0.045240562

hidden_layer.bias f4 [256]
00000000: a477 aa3d 027c 3dbd 3c0e 903c 2d50 88bd
00000010: 1323 cfbd b4f4 243e aaed f7bd d1cb 043e
00000020: 5c34 643e 9801 f2bb e295 fb3d efa1 1c3e
00000030: dc99 4d3e 5a0d c0bd b1e0 67bd beac 9ebd
00000040: e4bd 583e e447 1ebd c5df a9bd e628 d5bd
00000050: a985 263e 8917 153c aa99 e4bd 10a3 04bd
00000060: 0e7d 6d3c 7a94 10bd 0312 0b3e 4780 d7bc
00000070: 8fe1 5d3e fdc1 99bc 9883 5abe 9f23 323c
00000080: dae6 fdbd adcf d03e 6c55 e4bd e606 4b3e
00000090: b096 e7bb 1096 3bbc af44 61bd a9ad d7bd
000000a0: 79f1 233d 57d7 773e 10ae 4c3c d648 febd
000000b0: 10c0 87bd f1dd 143e 26aa 703e f4f0 3cbe
000000c0: 0594 af3c 117b 103e 9fb5 1a3e 3ec7 2d3e
000000d0: 9920 43bd d34b 083e 3be4 683e 54f5 1bbd
000000e0: e808 7a3e 9fe2 e1bc 7867 183d 154a 593e
000000f0: a751 3abe 0af7 b8bd e6cc f0bd ab45 bdbd
00000100: b716 2e3e 83f7 dcbd 2baf 543e 52d2 b9bc
00000110: d497 343e 4b52 143d e341 453e 238b efbd
00000120: c1bc 073e d87d f53c c30e 963d 830a 6a3e
00000130: d13b c9bd cc46 153e e42b 283d 0743 2cbd
00000140: c1e0 023e ce47 353e 49a8 a4bd 8277 f1bc
00000150: ea4a b83b 8d29 06be 5fe9 b93d 2958 8dbc
00000160: 4109 173e 4172 be3c 7486 7a3c 764b 9bbd
00000170: 9646 0d3e f3de a0bd 3507 0e3d da01 b6bd
00000180: 0a16 4dbb a750 9cbd 9487 383d 1a78 053e
00000190: 3a58 533e 2236 4b3e ccec cebd f64e f53d
000001a0: 59b0 193d 2130 69bd b6f2 a53d df7d e33d
000001b0: 329e f0bd 711d ec3d 925f 7c3e f0b1 273e
000001c0: b796 0b3e 3df3 1d3d f069 103b 6887 8dbd
000001d0: 5498 383d 417c 6f3e a7cb 1fbd 45df 48bd
000001e0: c7b1 23bd ca38 583e 392d d93d 0c7f 02be
000001f0: fe1a e6bc 74ae d63d a325 a93d 8d15 25bd
00000200: c336 d4bd 0730 703e ae11 6f3e cca2 653e
00000210: cd9c 363d 5406 323e a15a 7d3e 73e8 4bbd
00000220: e378 91bd 3509 b53c 8478 083e cda0 533e
00000230: 6bb5 7cbd 2fa8 abbe 1497 c53c ea05 253e
00000240: 3c58 5abd b91e bf3c ad9e 1f3e a2fd 7ebd
00000250: e6f3 333e 9d38 8a3d d7ff 90bd 4ab8 f8bd
00000260: 18f2 393e 7588 733e f46a e93d d5dc 55bd
00000270: 6225 16bd 5dd6 7fbd e330 65bd 6bd9 503e
00000280: f181 1abe ec98 20be 3455 283d f68b 2b3e
00000290: 5e01 393e 52c3 503d c9de 233e 9ad9 4e3d
000002a0: d682 203d 2a01 673e ce07 073e de2a 26bd
000002b0: 374a afbd 3a03 a4bd 3933 c53d 59da 5c3c
000002c0: 724f 2aba bdf9 02be 3b50 c1bc 32c4 5a3e
000002d0: 9d78 94bb 4602 24bd 9d5e 3e3d 0baa 443e
000002e0: 9c53 093e 34b4 14bd d962 043e 2a66 ed3d
000002f0: 4f95 473e ab61 703e ce9f f73d 27e7 7c3c
00000300: ea65 373e eca6 78bc e62f 7bbd efd8 60bc
00000310: 0b0a 3dbc 35fa bebd 6d6c f3bd 55c0 02bd
00000320: 59fa 5b3e 8f18 a73d 3ddc 653e b49a e8bd
00000330: e37a 90bb 9e9b 37bd 7ea4 413e 55bc 443d
00000340: f7c4 13bd a948 263d 44b6 523c d06c 643e
00000350: b9a9 3e3e 1387 87bd c0c2 82bd 9f2e 873c
00000360: 063f 61bd bae0 113d 0196 6b3d d685 273e
00000370: 3cc6 d0bd ca9f 483c 0419 103e bc44 813e
00000380: 9b48 0b3e 0f69 513e 4a41 46bd 69cd 4bbd
00000390: 6696 b5bd 675c a73d 9651 e53d 93cb 173e
000003a0: b920 26bb bad6 e53d c4a2 21bd 067a 1a3d
000003b0: 1f3e 6e3e bb48 8b3d 4d2c 613e 5598 d43d
000003c0: b89e 57be b987 b03a 83c6 4b3e 7144 dfbd
000003d0: 1709 93bd 43dc e1bd 95e1 f9bc 27ac 183e
000003e0: 8948 b4bd 5410 a5bd 253e c13d 2f7d 43bd
000003f0: c2f4 68bc 1296 843d 5df2 203e cbef 60bd
0.08323601 -0.04626084 0.017584912 -0.06655917 -0.10114112 0.16108972 -0.12105878 0.12968375
0.22285599 -0.007385444 0.12284447 0.15296148 0.20078224 -0.093775466 -0.056610767 -0.07747792
0.21166188 -0.03864278 -0.08294634 -0.104081914 0.16261925 0.0090998495 -0.111621216 -0.03238207
0.014495147 -0.03529785 0.1358109 -0.026306285 0.21668075 -0.018769259 -0.21339262 0.010872751
-0.12397547 0.40783444 -0.111491054 0.1982685 -0.007067524 -0.011449352 -0.054997142 -0.1053117
0.04002521 0.2420324 0.012492672 -0.12416236 -0.0662843 0.14537789 0.23502406 -0.18451291
0.021432886 0.14109446 0.15108345 0.16970536 -0.04763851 0.13310175 0.22743313 -0.03807576
0.2441746 -0.027573882 0.03720805 0.21219666 -0.1819521 -0.09031494 -0.11757831 -0.09241804
0.17000853 -0.107893966 0.20769946 -0.022683296 0.17636043 0.036211293 0.19263415 -0.1169646
0.13255598 0.029967234 0.07327034 0.22855572 -0.09825862 0.14577788 0.041057482 -0.04205611
0.1278105 0.17703173 -0.0803991 -0.029475931 0.005624165 -0.13101788 0.09077715 -0.017253952
0.14749624 0.02324784 0.015290845 -0.075827524 0.13796458 -0.07855024 0.034674842 -0.08887072
-0.0031293654 -0.07632571 0.045051172 0.13034096 0.20639125 0.19844869 -0.10103759 0.11977951
0.037521694 -0.056930665 0.08102934 0.111079924 -0.11748923 0.11529053 0.24645832 0.16376472
0.13631712 0.03856205 0.00220358 -0.06910592 0.045067146 0.23387243 -0.039012577 -0.04904105
-0.039964464 0.21115413 0.10604329 -0.12743777 -0.028089043 0.10482493 0.08259132 -0.040303756
-0.103620075 0.23455821 0.23346588 0.22425383 0.04458313 0.17385226 0.24741603 -0.049782228
-0.071031354 0.022099117 0.13327223 0.2066681 -0.06169645 -0.3352675 0.024119891 0.16115537
-0.053306803 0.02333008 0.15587874 -0.0622536 0.17573509 0.067490794 -0.070800476 -0.12144525
0.18158758 0.23782523 0.11397353 -0.052212555 -0.036656745 -0.062460292 -0.055954825 0.20395438
-0.15088631 -0.15683335 0.04109688 0.1675261 0.18066928 0.050967522 0.16002955 0.05050049
0.039187275 0.22559038 0.13186571 -0.040568225 -0.08559077 -0.08008428 0.096289106 0.0134797925
-0.00064968236 -0.1279058 -0.023597827 0.21363905 -0.00453098 -0.04004123 0.04647695 0.19205491
0.134108 -0.036304668 0.12928332 0.11591752 0.1949055 0.23474757 0.12091027 0.01543597
0.17909971 -0.015176516 -0.061324976 -0.013723596 -0.011538039 -0.09325067 -0.11885915 -0.031921703
0.21482219 0.08158981 0.22447295 -0.11357632 -0.0044091805 -0.044826142 0.18910405 0.04803117
-0.036076512 0.040596638 0.012860838 0.22307134 0.18619432 -0.0661756 -0.06384802 0.016501723
-0.054991744 0.035614707 0.0575161 0.16359648 -0.1019406 0.012245128 0.14072043 0.25247753
0.13601916 0.20450233 -0.04840211 -0.04975644 -0.08866577 0.08171921 0.11197202 0.14823751
-0.0025349094 0.112225965 -0.039461866 0.037714027 0.23265885 0.068009816 0.21989556 0.103806175
-0.2105664 0.0013468183 0.19899945 -0.10901726 -0.07179468 -0.1102834 -0.030503074 0.14909421
-0.088028975 -0.08059755 0.09435681 -0.047726806 -0.014218511 0.06473936 0.15717454 -0.054916184

output_layer.weight f4 [1, 256]
00000000: 2a7a 10be eb22 51bc 21f6 953a 9163 64bc
00000010: ad80 ac3c 8db0 b3bd 89c9 eb3c 6ca5 0cbe
00000020: 3530 2fbe abb0 d4bc 1a53 05be 2ab9 d9bd
00000030: 054f 3abe 2c10 d83a e970 f2bc f803 833d
00000040: b39a 13be 1094 093c 8061 34b9 fcb8 76bc
00000050: 728c 00be 2d12 3cbc 698b 993c 2860 673c
00000060: ffff e4bc 30b4 2b3d 9f35 2ebe a0c4 7dbc
00000070: 5598 2fbe 7ab3 bf3b afd7 403e 7f2b 87bc
00000080: c5ce 0d3c 3f6d ea3e ab3c 7fbc 264c 08be
00000090: 9046 f9bb af89 f3bc 9d86 4439 f757 f6bc
000000a0: 0923 c43a eaf9 33be a28c 83bc 64bd 14bc
000000b0: c7b5 4cbb f1d7 04be 5f2f 1dbe d51e 323d
000000c0: def1 f9bc 7425 0abe 1652 0cbe 9955 02be
000000d0: 16a7 ac3b bf61 21be 010c 20be bc89 ae3c
000000e0: 6c94 40be c97a 95bc b124 00bc 5eb2 2abe
000000f0: fef2 923e 4095 66bc ed77 51bc 5082 993c
00000100: 79da 44be 0547 3dbb 3275 3fbe 76ad 583c
00000110: 9048 c7bd 21ce 8bbc 77b2 19be 4c43 d03c
00000120: d0d2 fcbd b698 fd3c 7bbb 06be 6240 21be
00000130: 7c06 bdbc a049 2bbe 3a74 883c 43d4 8ebc
00000140: 0c0e 08be e3ef 2cbe 8cad 933c 9d63 873c
00000150: 0a73 f33b 3936 fbbb f7f6 00be 1b05 b3bc
00000160: 641d f9bd e6cb a5bb c0bb 93bb 6547 aebb
00000170: f9e3 14be 33fb ed3b ba39 353c f3c0 bfbc
00000180: b545 953c 40e4 5c3b ff72 473c 271b f5bd
00000190: e671 cfbd 2c6c 3ebe 50b0 2b3c c335 1cbe
000001a0: aa62 63bc 3185 cebb e37b fdbd 372b 0ebe
000001b0: 0c48 38bd d31a 04be edfd 31be 9ef4 efbd
000001c0: 9a5a f5bd 12d6 113c 8ab9 133a d127 a43c
000001d0: 2760 febb 27d4 05be b13b f2bc 78e2 88bc
000001e0: ee72 d5b8 84e8 1ebe b9fb 14be 4c60 bbbc
000001f0: 933d 1d3c dcc1 e0bd 745f 03be c664 89bd
00000200: 35a9 cdbb 1f4d fabd 1b05 ffbd 6f2b efbd
00000210: 6cb2 6ebb b5b2 04be 16e3 2dbe dad4 8bbc
00000220: c650 c13c 35ff 0d3a d612 2bbe 4ee0 2bbe
00000230: e445 fd3c 52a8 4e3e 0f37 2ebc cf9d 71be
00000240: 3c07 663c 7180 debc 3397 ffbd e9c6 c63c
00000250: 5ea5 18be f59e f9bd b3f3 a8bc 934c 0e3d
00000260: 2e89 02be 6b98 3dbe f541 30be 34dc a3bc
00000270: 0fc4 5dbc c3d0 473c 7448 5639 bdda 01be
00000280: 7ef2 27bd 6ad0 983d 2fc3 343c 12eb 1dbe
00000290: 34d6 fcbd 0fb7 84bc 7115 1bbe b38c b1bd
000002a0: 9833 e8bc f945 0cbe 2914 2cbe 889b 7fbc
000002b0: 24b9 dcbd 1513 5d3c 6f3b 10be 2d6b 493c
000002c0: 0717 b9bc 9e3b a2bc ed5d 5b3d 6d32 2dbe
000002d0: 449d 4e3b 724d 8d3c e448 f03c b0d2 46be
000002e0: 7db9 d33e 289d aebb 803f 31be 29c5 25be
000002f0: 2a64 13be 80ed 00be 174b 30be cfc6 e13b
00000300: cc01 31be 4dc4 a13c 0014 aabb e53a 3c3a
00000310: 2e94 07bc 5ee6 5d3c f967 e8bc ba6c 803b
00000320: 2991 b0bd 93db 19be a069 48be bbc7 c3bc
00000330: afce a2bc d539 723c 0209 0abe c06c 143d
00000340: 8511 fcba ffbb 9abc ca75 a0bc 073a efbd
00000350: 1112 f3bd 296c 763c b024 b6bc 35d7 d43c
00000360: 14c2 233d e652 703c 99e4 0a3b 02ef 1ebe
00000370: dc41 a5bc 578c 8e3c 077d 10be 60ca 41be
00000380: b2ed efbd 7728 b0bd ecbe 0b3c 897c 123d
00000390: e801 ba3c 2760 01be cb2a 3bbe 7409 10be
000003a0: 4729 53bb 32c6 2cbe 2c55 383c 049d af3c
000003b0: 7c79 0cbe 08b1 b9bd ade8 e1bd 134b 3dbe
000003c0: 3876 073e 3afa f1bc 3fc2 38be 9f32 5d3c
000003d0: da98 18bd 3652 bc3c fced 98bc be41 38be
000003e0: dad6 f8bb 1442 e23c 57f5 31be 2385 663b
000003f0: f910 b5bc 771d e8bd 45d1 0abe fc7d d2bb
-0.14109102 -0.012764673 0.001144115 -0.013939754 0.021057451 -0.08773909 0.028782623 -0.13734978
-0.17108233 -0.025963148 -0.13019982 -0.1063102 -0.18194206 0.0016484312 -0.029594855 0.06397241
-0.14414482 0.008397117 -0.0001720246 -0.015058752 -0.12553576 -0.011478943 0.018743234 0.0141220465
-0.0279541 0.041919887 -0.17012642 -0.015488774 -0.17147954 0.0058502527 0.18832277 -0.016500233
0.008655255 0.45786473 -0.015578429 -0.13310298 -0.0076072887 -0.029728739 0.00018742164 -0.030071242
0.0014964055 -0.17575803 -0.01605827 -0.009078357 -0.0031236277 -0.12973 -0.15350102 0.043486435
-0.03051084 -0.1349085 -0.13703188 -0.12727965 0.0052689416 -0.15759943 -0.15629579 0.021305911
-0.18806618 -0.018247025 -0.007821248 -0.16669604 0.28701013 -0.01407367 -0.01278494 0.018738896
-0.19223966 -0.0028881442 -0.1869705 0.01322495 -0.09730637 -0.017066063 -0.15009485 0.025422715
-0.12344897 0.030956607 -0.13157456 -0.15747216 -0.023074381 -0.16727304 0.016656984 -0.017435199
-0.13286608 -0.16888385 0.01802709 0.016526992 0.007429485 -0.007666376 -0.1259421 -0.02185302
-0.12163809 -0.005059707 -0.0045084655 -0.0053185695 -0.1454009 0.0072626113 0.011061126 -0.023407435
0.018221715 0.0033705384 0.012173413 -0.119680695 -0.10129146 -0.18595952 0.010479048 -0.15254883
-0.013878504 -0.0063024987 -0.12377145 -0.13883673 -0.044990584 -0.12900858 -0.17382021 -0.11716579
-0.119801715 0.008901136 0.00056352525 0.020038517 -0.007762927 -0.13069211 -0.029569479 -0.016709551
-0.00010178039 -0.15518385 -0.1454915 -0.022873066 0.0095972 -0.10974476 -0.12829381 -0.06708674
-0.0062762746 -0.12221741 -0.12452146 -0.11678206 -0.0036422266 -0.12958796 -0.16981158 -0.017069269
0.023598086 0.0005416752 -0.16706404 -0.16784784 0.030917116 0.20181397 -0.010633244 -0.23595355
0.014039811 -0.027160855 -0.12480011 0.02426477 -0.14906833 -0.12188522 -0.020624017 0.034740996
-0.12747642 -0.18515174 -0.1721266 -0.020002462 -0.013535514 0.012195769 0.00020435621 -0.12681098
-0.041002743 0.07461627 0.0110328635 -0.15421703 -0.123455435 -0.01620057 -0.15144898 -0.08669414
-0.028344914 -0.13698567 -0.16804565 -0.015601046 -0.107775 0.013493319 -0.14085172 0.012293619
-0.022593988 -0.019803818 0.05355637 -0.16913767 0.0031526843 0.017248843 0.029331632 -0.19416308
0.41352454 -0.005328793 -0.1730938 -0.16188492 -0.14393678 -0.12590599 -0.17216145 0.006890155
-0.17285842 0.019746924 -0.0051903725 0.0007180407 -0.008275075 0.013543693 -0.02836989 0.003919211
-0.08621437 -0.15025167 -0.19571543 -0.02389895 -0.019873945 0.014784296 -0.13479999 0.036236525
-0.0019231295 -0.018888472 -0.019587416 -0.1168099 -0.1186868 0.015040436 -0.02223429 0.025981525
0.03998001 0.014668202 0.0021193384 -0.15520862 -0.020173006 0.017400904 -0.14110194 -0.18924856
-0.11715259 -0.08601468 0.008529406 0.035763297 0.022705987 -0.12634335 -0.18278043 -0.14066106
-0.0032220648 -0.1687248 0.011250775 0.021437176 -0.13718218 -0.09066969 -0.110307075 -0.1848567
0.1322869 -0.029538263 -0.18042849 0.013500839 -0.037255146 0.02298842 -0.018668167 -0.17993829
-0.0075939717 0.0276194 -0.17378746 0.003517457 -0.02210282 -0.11333745 -0.13556392 -0.00642371
