executions/actor_critic_lunar_lander_20251026_020434/Quantum_Actor_Model.pt (torch, 2373 bytes, 2 tensors)

quantum_policy_head.x_weights f4 [5, 8]
000000 a1 34 c5 3f ba 9c 5e 40 a5 56 3b 3e 43 59 96 3f
       1.5406686 3.4783158 0.18294771 1.174599
000010 3c 6b c1 40 6e 88 c2 3f 03 5a 91 40 91 a1 91 40
       6.04434 1.5197885 4.5422378 4.5509725
000020 ec 5f a8 40 70 8f c7 3e c9 2e 85 40 b2 02 f7 3e
       5.261709 0.38976622 4.161961 0.48244244
000030 1b 97 d6 3f c3 67 8f 3f 66 1b 2f 40 75 5d 90 3e
       1.6764864 1.120354 2.7360473 0.28196302
000040 9f 97 8f 3f 73 f2 72 40 61 4e 82 40 40 81 eb 3f
       1.1218146 3.796048 4.0720677 1.8398819
000050 15 39 8f 40 34 8a eb 3f 13 8e ad 40 20 e6 0e 40
       4.475718 1.8401551 5.423593 2.2327957
000060 c8 8f 93 40 cb 03 52 3f 91 f4 c7 40 8c 0b 2e 40
       4.6113014 0.8203704 6.2486043 2.7194548
000070 8b 45 c4 3f 4b 67 37 40 10 4b b8 40 06 15 77 40
       1.5333723 2.8656795 5.759163 3.8606582
000080 34 2a 34 40 3e c3 2c 40 ab ec 7a 40 f5 79 16 40
       2.8150759 2.6994166 3.920695 2.3511937
000090 9e 45 81 40 26 06 72 40 ef ba 8f 40 6e 27 cd 3f
       4.039748 3.7816253 4.491569 1.6027658

quantum_policy_head.z_weights f4 [5, 8]
000000 32 cd 11 40 a2 ff dd 3f 56 fa 91 40 05 d5 15 40
       2.2781491 1.7343638 4.5618086 2.3411267
000010 cb 99 48 3f 7f 52 56 40 50 f0 88 40 d1 0c 86 40
       0.7835967 3.3487852 4.279335 4.1890645
000020 2e f0 79 40 41 b1 04 3e 13 da 95 40 3a 5f 24 40
       3.9052844 0.12958242 4.6828704 2.5683122
000030 21 de 4e 3e 2b d3 1e 40 c8 df 15 40 8e bb 0d 40
       0.20201923 2.4816387 2.3417835 2.2145724
000040 f3 47 82 3f 72 7d 38 3e 47 5e 19 40 42 99 56 40
       1.0178207 0.18016604 2.3963792 3.353104
000050 c1 a7 ce 3f 43 87 b3 40 e4 e8 ba 40 a7 a0 d8 3f
       1.6144944 5.6102614 5.840929 1.6924027
000060 90 94 80 40 08 ae f0 3f 50 3d 15 40 c5 7b 58 3d
       4.018135 1.880311 2.3318672 0.05285241
000070 51 86 79 3f 5b c0 98 3f b0 ae cd 3f 75 32 13 40
       0.97470576 1.1933702 1.6068935 2.2999547
000080 0c c9 b8 40 e5 29 59 40 9b e5 c8 40 46 4b 9b 3f
       5.774542 3.393182 6.278028 1.2132347
000090 8b de 1c 40 59 e6 a1 40 c3 7e 36 40 8c 3c fd 3f
       2.451083 5.0593686 2.851487 1.9784102
